WARNING: Logging before InitGoogleLogging() is written to STDERR
I0415 19:42:56.283305  2114 net.cpp:50] Initializing net from parameters: 
name: "CRFRNN-VOC"
input: "data"
input_dim: 1
input_dim: 3
input_dim: 500
input_dim: 500
force_backward: true
state {
  phase: TEST
}
layer {
  name: "conv1_1"
  type: "Convolution"
  bottom: "data"
  top: "conv1_1"
  param {
    lr_mult: 1
    decay_mult: 1
  }
  param {
    lr_mult: 2
    decay_mult: 0
  }
  convolution_param {
    num_output: 64
    pad: 100
    kernel_size: 3
    engine: CAFFE
  }
}
layer {
  name: "relu1_1"
  type: "ReLU"
  bottom: "conv1_1"
  top: "conv1_1"
}
layer {
  name: "conv1_2"
  type: "Convolution"
  bottom: "conv1_1"
  top: "conv1_2"
  param {
    lr_mult: 1
    decay_mult: 1
  }
  param {
    lr_mult: 2
    decay_mult: 0
  }
  convolution_param {
    num_output: 64
    pad: 1
    kernel_size: 3
    engine: CAFFE
  }
}
layer {
  name: "relu1_2"
  type: "ReLU"
  bottom: "conv1_2"
  top: "conv1_2"
}
layer {
  name: "pool1"
  type: "Pooling"
  bottom: "conv1_2"
  top: "pool1"
  pooling_param {
    pool: MAX
    kernel_size: 2
    stride: 2
  }
}
layer {
  name: "conv2_1"
  type: "Convolution"
  bottom: "pool1"
  top: "conv2_1"
  param {
    lr_mult: 1
    decay_mult: 1
  }
  param {
    lr_mult: 2
    decay_mult: 0
  }
  convolution_param {
    num_output: 128
    pad: 1
    kernel_size: 3
    engine: CAFFE
  }
}
layer {
  name: "relu2_1"
  type: "ReLU"
  bottom: "conv2_1"
  top: "conv2_1"
}
layer {
  name: "conv2_2"
  type: "Convolution"
  bottom: "conv2_1"
  top: "conv2_2"
  param {
    lr_mult: 1
    decay_mult: 1
  }
  param {
    lr_mult: 2
    decay_mult: 0
  }
  convolution_param {
    num_output: 128
    pad: 1
    kernel_size: 3
    engine: CAFFE
  }
}
layer {
  name: "relu2_2"
  type: "ReLU"
  bottom: "conv2_2"
  top: "conv2_2"
}
layer {
  name: "pool2"
  type: "Pooling"
  bottom: "conv2_2"
  top: "pool2"
  pooling_param {
    pool: MAX
    kernel_size: 2
    stride: 2
  }
}
layer {
  name: "conv3_1"
  type: "Convolution"
  bottom: "pool2"
  top: "conv3_1"
  param {
    lr_mult: 1
    decay_mult: 1
  }
  param {
    lr_mult: 2
    decay_mult: 0
  }
  convolution_param {
    num_output: 256
    pad: 1
    kernel_size: 3
    engine: CAFFE
  }
}
layer {
  name: "relu3_1"
  type: "ReLU"
  bottom: "conv3_1"
  top: "conv3_1"
}
layer {
  name: "conv3_2"
  type: "Convolution"
  bottom: "conv3_1"
  top: "conv3_2"
  param {
    lr_mult: 1
    decay_mult: 1
  }
  param {
    lr_mult: 2
    decay_mult: 0
  }
  convolution_param {
    num_output: 256
    pad: 1
    kernel_size: 3
    engine: CAFFE
  }
}
layer {
  name: "relu3_2"
  type: "ReLU"
  bottom: "conv3_2"
  top: "conv3_2"
}
layer {
  name: "conv3_3"
  type: "Convolution"
  bottom: "conv3_2"
  top: "conv3_3"
  param {
    lr_mult: 1
    decay_mult: 1
  }
  param {
    lr_mult: 2
    decay_mult: 0
  }
  convolution_param {
    num_output: 256
    pad: 1
    kernel_size: 3
    engine: CAFFE
  }
}
layer {
  name: "relu3_3"
  type: "ReLU"
  bottom: "conv3_3"
  top: "conv3_3"
}
layer {
  name: "pool3"
  type: "Pooling"
  bottom: "conv3_3"
  top: "pool3"
  pooling_param {
    pool: MAX
    kernel_size: 2
    stride: 2
  }
}
layer {
  name: "conv4_1"
  type: "Convolution"
  bottom: "pool3"
  top: "conv4_1"
  param {
    lr_mult: 1
    decay_mult: 1
  }
  param {
    lr_mult: 2
    decay_mult: 0
  }
  convolution_param {
    num_output: 512
    pad: 1
    kernel_size: 3
    engine: CAFFE
  }
}
layer {
  name: "relu4_1"
  type: "ReLU"
  bottom: "conv4_1"
  top: "conv4_1"
}
layer {
  name: "conv4_2"
  type: "Convolution"
  bottom: "conv4_1"
  top: "conv4_2"
  param {
    lr_mult: 1
    decay_mult: 1
  }
  param {
    lr_mult: 2
    decay_mult: 0
  }
  convolution_param {
    num_output: 512
    pad: 1
    kernel_size: 3
    engine: CAFFE
  }
}
layer {
  name: "relu4_2"
  type: "ReLU"
  bottom: "conv4_2"
  top: "conv4_2"
}
layer {
  name: "conv4_3"
  type: "Convolution"
  bottom: "conv4_2"
  top: "conv4_3"
  param {
    lr_mult: 1
    decay_mult: 1
  }
  param {
    lr_mult: 2
    decay_mult: 0
  }
  convolution_param {
    num_output: 512
    pad: 1
    kernel_size: 3
    engine: CAFFE
  }
}
layer {
  name: "relu4_3"
  type: "ReLU"
  bottom: "conv4_3"
  top: "conv4_3"
}
layer {
  name: "pool4"
  type: "Pooling"
  bottom: "conv4_3"
  top: "pool4"
  pooling_param {
    pool: MAX
    kernel_size: 2
    stride: 2
  }
}
layer {
  name: "conv5_1"
  type: "Convolution"
  bottom: "pool4"
  top: "conv5_1"
  param {
    lr_mult: 1
    decay_mult: 1
  }
  param {
    lr_mult: 2
    decay_mult: 0
  }
  convolution_param {
    num_output: 512
    pad: 1
    kernel_size: 3
    engine: CAFFE
  }
}
layer {
  name: "relu5_1"
  type: "ReLU"
  bottom: "conv5_1"
  top: "conv5_1"
}
layer {
  name: "conv5_2"
  type: "Convolution"
  bottom: "conv5_1"
  top: "conv5_2"
  param {
    lr_mult: 1
    decay_mult: 1
  }
  param {
    lr_mult: 2
    decay_mult: 0
  }
  convolution_param {
    num_output: 512
    pad: 1
    kernel_size: 3
    engine: CAFFE
  }
}
layer {
  name: "relu5_2"
  type: "ReLU"
  bottom: "conv5_2"
  top: "conv5_2"
}
layer {
  name: "conv5_3"
  type: "Convolution"
  bottom: "conv5_2"
  top: "conv5_3"
  param {
    lr_mult: 1
    decay_mult: 1
  }
  param {
    lr_mult: 2
    decay_mult: 0
  }
  convolution_param {
    num_output: 512
    pad: 1
    kernel_size: 3
    engine: CAFFE
  }
}
layer {
  name: "relu5_3"
  type: "ReLU"
  bottom: "conv5_3"
  top: "conv5_3"
}
layer {
  name: "pool5"
  type: "Pooling"
  bottom: "conv5_3"
  top: "pool5"
  pooling_param {
    pool: MAX
    kernel_size: 2
    stride: 2
  }
}
layer {
  name: "fc6"
  type: "Convolution"
  bottom: "pool5"
  top: "fc6"
  param {
    lr_mult: 1
    decay_mult: 1
  }
  param {
    lr_mult: 2
    decay_mult: 0
  }
  convolution_param {
    num_output: 4096
    kernel_size: 7
    engine: CAFFE
  }
}
layer {
  name: "relu6"
  type: "ReLU"
  bottom: "fc6"
  top: "fc6"
}
layer {
  name: "drop6"
  type: "Dropout"
  bottom: "fc6"
  top: "fc6"
  dropout_param {
    dropout_ratio: 0.5
  }
}
layer {
  name: "fc7"
  type: "Convolution"
  bottom: "fc6"
  top: "fc7"
  param {
    lr_mult: 1
    decay_mult: 1
  }
  param {
    lr_mult: 2
    decay_mult: 0
  }
  convolution_param {
    num_output: 4096
    kernel_size: 1
    engine: CAFFE
  }
}
layer {
  name: "relu7"
  type: "ReLU"
  bottom: "fc7"
  top: "fc7"
}
layer {
  name: "drop7"
  type: "Dropout"
  bottom: "fc7"
  top: "fc7"
  dropout_param {
    dropout_ratio: 0.5
  }
}
layer {
  name: "score-fr"
  type: "Convolution"
  bottom: "fc7"
  top: "score"
  param {
    lr_mult: 1
    decay_mult: 1
  }
  param {
    lr_mult: 2
    decay_mult: 0
  }
  convolution_param {
    num_output: 21
    kernel_size: 1
    engine: CAFFE
  }
}
layer {
  name: "score2"
  type: "Deconvolution"
  bottom: "score"
  top: "score2"
  param {
    lr_mult: 1
  }
  convolution_param {
    num_output: 21
    kernel_size: 4
    stride: 2
    weight_filler {
      type: "bilinear"
    }
  }
}
layer {
  name: "score-pool4"
  type: "Convolution"
  bottom: "pool4"
  top: "score-pool4"
  param {
    lr_mult: 1
    decay_mult: 1
  }
  param {
    lr_mult: 2
    decay_mult: 0
  }
  convolution_param {
    num_output: 21
    kernel_size: 1
    engine: CAFFE
  }
}
layer {
  name: "crop"
  type: "Crop"
  bottom: "score-pool4"
  bottom: "score2"
  top: "score-pool4c"
}
layer {
  name: "fuse"
  type: "Eltwise"
  bottom: "score2"
  bottom: "score-pool4c"
  top: "score-fused"
  eltwise_param {
    operation: SUM
  }
}
layer {
  name: "score4"
  type: "Deconvolution"
  bottom: "score-fused"
  top: "score4"
  param {
    lr_mult: 1
    decay_mult: 1
  }
  convolution_param {
    num_output: 21
    bias_term: false
    kernel_size: 4
    stride: 2
  }
}
layer {
  name: "score-pool3"
  type: "Convolution"
  bottom: "pool3"
  top: "score-pool3"
  param {
    lr_mult: 1
    decay_mult: 1
  }
  param {
    lr_mult: 2
    decay_mult: 0
  }
  convolution_param {
    num_output: 21
    kernel_size: 1
    engine: CAFFE
  }
}
layer {
  name: "crop"
  type: "Crop"
  bottom: "score-pool3"
  bottom: "score4"
  top: "score-pool3c"
}
layer {
  name: "fuse"
  type: "Eltwise"
  bottom: "score4"
  bottom: "score-pool3c"
  top: "score-final"
  eltwise_param {
    operation: SUM
  }
}
layer {
  name: "upsample"
  type: "Deconvolution"
  bottom: "score-final"
  top: "bigscore"
  param {
    lr_mult: 0
  }
  convolution_param {
    num_output: 21
    bias_term: false
    kernel_size: 16
    stride: 8
  }
}
layer {
  name: "crop"
  type: "Crop"
  bottom: "bigscore"
  bottom: "data"
  top: "coarse"
}
layer {
  name: "splitting"
  type: "Split"
  bottom: "coarse"
  top: "unary"
  top: "Q0"
}
layer {
  name: "inference1-ft"
  type: "MultiStageMeanfield"
  bottom: "unary"
  bottom: "Q0"
  bottom: "data"
  top: "pred"
  param {
    lr_mult: 10000
  }
  param {
    lr_mult: 10000
  }
  param {
    lr_mult: 10000
  }
  multi_stage_meanfield_param {
    compatibility_mode: CUSTOM
    threshold: 2
    theta_alpha: 160
    theta_beta: 3
    theta_gamma: 3
    num_iterations: 10
    spatial_filter_weight: 3
    bilateral_filter_weight: 5
  }
}
I0415 19:42:56.283516  2114 net.cpp:436] Input 0 -> data
I0415 19:42:56.283540  2114 layer_factory.hpp:76] Creating layer data_input_0_split
I0415 19:42:56.283548  2114 net.cpp:111] Creating Layer data_input_0_split
I0415 19:42:56.283551  2114 net.cpp:478] data_input_0_split <- data
I0415 19:42:56.283556  2114 net.cpp:434] data_input_0_split -> data_input_0_split_0
I0415 19:42:56.283563  2114 net.cpp:434] data_input_0_split -> data_input_0_split_1
I0415 19:42:56.283568  2114 net.cpp:434] data_input_0_split -> data_input_0_split_2
I0415 19:42:56.283576  2114 net.cpp:156] Setting up data_input_0_split
I0415 19:42:56.283581  2114 net.cpp:164] Top shape: 1 3 500 500 (750000)
I0415 19:42:56.283586  2114 net.cpp:164] Top shape: 1 3 500 500 (750000)
I0415 19:42:56.283588  2114 net.cpp:164] Top shape: 1 3 500 500 (750000)
I0415 19:42:56.283591  2114 layer_factory.hpp:76] Creating layer conv1_1
I0415 19:42:56.283597  2114 net.cpp:111] Creating Layer conv1_1
I0415 19:42:56.283601  2114 net.cpp:478] conv1_1 <- data_input_0_split_0
I0415 19:42:56.283607  2114 net.cpp:434] conv1_1 -> conv1_1
I0415 19:42:56.284553  2114 net.cpp:156] Setting up conv1_1
I0415 19:42:56.284569  2114 net.cpp:164] Top shape: 1 64 698 698 (31181056)
I0415 19:42:56.284579  2114 layer_factory.hpp:76] Creating layer relu1_1
I0415 19:42:56.284588  2114 net.cpp:111] Creating Layer relu1_1
I0415 19:42:56.284615  2114 net.cpp:478] relu1_1 <- conv1_1
I0415 19:42:56.284620  2114 net.cpp:420] relu1_1 -> conv1_1 (in-place)
I0415 19:42:56.284626  2114 net.cpp:156] Setting up relu1_1
I0415 19:42:56.284629  2114 net.cpp:164] Top shape: 1 64 698 698 (31181056)
I0415 19:42:56.284631  2114 layer_factory.hpp:76] Creating layer conv1_2
I0415 19:42:56.284688  2114 net.cpp:111] Creating Layer conv1_2
I0415 19:42:56.284705  2114 net.cpp:478] conv1_2 <- conv1_1
I0415 19:42:56.284711  2114 net.cpp:434] conv1_2 -> conv1_2
I0415 19:42:56.285697  2114 net.cpp:156] Setting up conv1_2
I0415 19:42:56.285709  2114 net.cpp:164] Top shape: 1 64 698 698 (31181056)
I0415 19:42:56.285717  2114 layer_factory.hpp:76] Creating layer relu1_2
I0415 19:42:56.285723  2114 net.cpp:111] Creating Layer relu1_2
I0415 19:42:56.285727  2114 net.cpp:478] relu1_2 <- conv1_2
I0415 19:42:56.285732  2114 net.cpp:420] relu1_2 -> conv1_2 (in-place)
I0415 19:42:56.285738  2114 net.cpp:156] Setting up relu1_2
I0415 19:42:56.285743  2114 net.cpp:164] Top shape: 1 64 698 698 (31181056)
I0415 19:42:56.285745  2114 layer_factory.hpp:76] Creating layer pool1
I0415 19:42:56.285750  2114 net.cpp:111] Creating Layer pool1
I0415 19:42:56.285753  2114 net.cpp:478] pool1 <- conv1_2
I0415 19:42:56.285756  2114 net.cpp:434] pool1 -> pool1
I0415 19:42:56.285763  2114 net.cpp:156] Setting up pool1
I0415 19:42:56.285769  2114 net.cpp:164] Top shape: 1 64 349 349 (7795264)
I0415 19:42:56.285771  2114 layer_factory.hpp:76] Creating layer conv2_1
I0415 19:42:56.285776  2114 net.cpp:111] Creating Layer conv2_1
I0415 19:42:56.285778  2114 net.cpp:478] conv2_1 <- pool1
I0415 19:42:56.285782  2114 net.cpp:434] conv2_1 -> conv2_1
I0415 19:42:56.286172  2114 net.cpp:156] Setting up conv2_1
I0415 19:42:56.286185  2114 net.cpp:164] Top shape: 1 128 349 349 (15590528)
I0415 19:42:56.286195  2114 layer_factory.hpp:76] Creating layer relu2_1
I0415 19:42:56.286200  2114 net.cpp:111] Creating Layer relu2_1
I0415 19:42:56.286201  2114 net.cpp:478] relu2_1 <- conv2_1
I0415 19:42:56.286206  2114 net.cpp:420] relu2_1 -> conv2_1 (in-place)
I0415 19:42:56.286211  2114 net.cpp:156] Setting up relu2_1
I0415 19:42:56.286213  2114 net.cpp:164] Top shape: 1 128 349 349 (15590528)
I0415 19:42:56.286216  2114 layer_factory.hpp:76] Creating layer conv2_2
I0415 19:42:56.286223  2114 net.cpp:111] Creating Layer conv2_2
I0415 19:42:56.286226  2114 net.cpp:478] conv2_2 <- conv2_1
I0415 19:42:56.286231  2114 net.cpp:434] conv2_2 -> conv2_2
I0415 19:42:56.286748  2114 net.cpp:156] Setting up conv2_2
I0415 19:42:56.286767  2114 net.cpp:164] Top shape: 1 128 349 349 (15590528)
I0415 19:42:56.286775  2114 layer_factory.hpp:76] Creating layer relu2_2
I0415 19:42:56.286782  2114 net.cpp:111] Creating Layer relu2_2
I0415 19:42:56.286785  2114 net.cpp:478] relu2_2 <- conv2_2
I0415 19:42:56.286792  2114 net.cpp:420] relu2_2 -> conv2_2 (in-place)
I0415 19:42:56.286798  2114 net.cpp:156] Setting up relu2_2
I0415 19:42:56.286801  2114 net.cpp:164] Top shape: 1 128 349 349 (15590528)
I0415 19:42:56.286804  2114 layer_factory.hpp:76] Creating layer pool2
I0415 19:42:56.286809  2114 net.cpp:111] Creating Layer pool2
I0415 19:42:56.286813  2114 net.cpp:478] pool2 <- conv2_2
I0415 19:42:56.286823  2114 net.cpp:434] pool2 -> pool2
I0415 19:42:56.286831  2114 net.cpp:156] Setting up pool2
I0415 19:42:56.286862  2114 net.cpp:164] Top shape: 1 128 175 175 (3920000)
I0415 19:42:56.286865  2114 layer_factory.hpp:76] Creating layer conv3_1
I0415 19:42:56.286870  2114 net.cpp:111] Creating Layer conv3_1
I0415 19:42:56.286875  2114 net.cpp:478] conv3_1 <- pool2
I0415 19:42:56.286882  2114 net.cpp:434] conv3_1 -> conv3_1
I0415 19:42:56.287500  2114 net.cpp:156] Setting up conv3_1
I0415 19:42:56.287511  2114 net.cpp:164] Top shape: 1 256 175 175 (7840000)
I0415 19:42:56.287519  2114 layer_factory.hpp:76] Creating layer relu3_1
I0415 19:42:56.287524  2114 net.cpp:111] Creating Layer relu3_1
I0415 19:42:56.287528  2114 net.cpp:478] relu3_1 <- conv3_1
I0415 19:42:56.287534  2114 net.cpp:420] relu3_1 -> conv3_1 (in-place)
I0415 19:42:56.287541  2114 net.cpp:156] Setting up relu3_1
I0415 19:42:56.287545  2114 net.cpp:164] Top shape: 1 256 175 175 (7840000)
I0415 19:42:56.287547  2114 layer_factory.hpp:76] Creating layer conv3_2
I0415 19:42:56.287551  2114 net.cpp:111] Creating Layer conv3_2
I0415 19:42:56.287554  2114 net.cpp:478] conv3_2 <- conv3_1
I0415 19:42:56.287559  2114 net.cpp:434] conv3_2 -> conv3_2
I0415 19:42:56.288751  2114 net.cpp:156] Setting up conv3_2
I0415 19:42:56.288767  2114 net.cpp:164] Top shape: 1 256 175 175 (7840000)
I0415 19:42:56.288774  2114 layer_factory.hpp:76] Creating layer relu3_2
I0415 19:42:56.288780  2114 net.cpp:111] Creating Layer relu3_2
I0415 19:42:56.288784  2114 net.cpp:478] relu3_2 <- conv3_2
I0415 19:42:56.288787  2114 net.cpp:420] relu3_2 -> conv3_2 (in-place)
I0415 19:42:56.288792  2114 net.cpp:156] Setting up relu3_2
I0415 19:42:56.288799  2114 net.cpp:164] Top shape: 1 256 175 175 (7840000)
I0415 19:42:56.288801  2114 layer_factory.hpp:76] Creating layer conv3_3
I0415 19:42:56.288806  2114 net.cpp:111] Creating Layer conv3_3
I0415 19:42:56.288810  2114 net.cpp:478] conv3_3 <- conv3_2
I0415 19:42:56.288815  2114 net.cpp:434] conv3_3 -> conv3_3
I0415 19:42:56.289997  2114 net.cpp:156] Setting up conv3_3
I0415 19:42:56.290014  2114 net.cpp:164] Top shape: 1 256 175 175 (7840000)
I0415 19:42:56.290019  2114 layer_factory.hpp:76] Creating layer relu3_3
I0415 19:42:56.290027  2114 net.cpp:111] Creating Layer relu3_3
I0415 19:42:56.290031  2114 net.cpp:478] relu3_3 <- conv3_3
I0415 19:42:56.290035  2114 net.cpp:420] relu3_3 -> conv3_3 (in-place)
I0415 19:42:56.290042  2114 net.cpp:156] Setting up relu3_3
I0415 19:42:56.290045  2114 net.cpp:164] Top shape: 1 256 175 175 (7840000)
I0415 19:42:56.290048  2114 layer_factory.hpp:76] Creating layer pool3
I0415 19:42:56.290052  2114 net.cpp:111] Creating Layer pool3
I0415 19:42:56.290055  2114 net.cpp:478] pool3 <- conv3_3
I0415 19:42:56.290060  2114 net.cpp:434] pool3 -> pool3
I0415 19:42:56.290066  2114 net.cpp:156] Setting up pool3
I0415 19:42:56.290071  2114 net.cpp:164] Top shape: 1 256 88 88 (1982464)
I0415 19:42:56.290072  2114 layer_factory.hpp:76] Creating layer pool3_pool3_0_split
I0415 19:42:56.290076  2114 net.cpp:111] Creating Layer pool3_pool3_0_split
I0415 19:42:56.290079  2114 net.cpp:478] pool3_pool3_0_split <- pool3
I0415 19:42:56.290086  2114 net.cpp:434] pool3_pool3_0_split -> pool3_pool3_0_split_0
I0415 19:42:56.290091  2114 net.cpp:434] pool3_pool3_0_split -> pool3_pool3_0_split_1
I0415 19:42:56.290096  2114 net.cpp:156] Setting up pool3_pool3_0_split
I0415 19:42:56.290099  2114 net.cpp:164] Top shape: 1 256 88 88 (1982464)
I0415 19:42:56.290102  2114 net.cpp:164] Top shape: 1 256 88 88 (1982464)
I0415 19:42:56.290104  2114 layer_factory.hpp:76] Creating layer conv4_1
I0415 19:42:56.290112  2114 net.cpp:111] Creating Layer conv4_1
I0415 19:42:56.290113  2114 net.cpp:478] conv4_1 <- pool3_pool3_0_split_0
I0415 19:42:56.290118  2114 net.cpp:434] conv4_1 -> conv4_1
I0415 19:42:56.292006  2114 net.cpp:156] Setting up conv4_1
I0415 19:42:56.292021  2114 net.cpp:164] Top shape: 1 512 88 88 (3964928)
I0415 19:42:56.292026  2114 layer_factory.hpp:76] Creating layer relu4_1
I0415 19:42:56.292032  2114 net.cpp:111] Creating Layer relu4_1
I0415 19:42:56.292037  2114 net.cpp:478] relu4_1 <- conv4_1
I0415 19:42:56.292040  2114 net.cpp:420] relu4_1 -> conv4_1 (in-place)
I0415 19:42:56.292045  2114 net.cpp:156] Setting up relu4_1
I0415 19:42:56.292049  2114 net.cpp:164] Top shape: 1 512 88 88 (3964928)
I0415 19:42:56.292054  2114 layer_factory.hpp:76] Creating layer conv4_2
I0415 19:42:56.292060  2114 net.cpp:111] Creating Layer conv4_2
I0415 19:42:56.292063  2114 net.cpp:478] conv4_2 <- conv4_1
I0415 19:42:56.292068  2114 net.cpp:434] conv4_2 -> conv4_2
I0415 19:42:56.295091  2114 net.cpp:156] Setting up conv4_2
I0415 19:42:56.295106  2114 net.cpp:164] Top shape: 1 512 88 88 (3964928)
I0415 19:42:56.295120  2114 layer_factory.hpp:76] Creating layer relu4_2
I0415 19:42:56.295126  2114 net.cpp:111] Creating Layer relu4_2
I0415 19:42:56.295130  2114 net.cpp:478] relu4_2 <- conv4_2
I0415 19:42:56.295133  2114 net.cpp:420] relu4_2 -> conv4_2 (in-place)
I0415 19:42:56.295141  2114 net.cpp:156] Setting up relu4_2
I0415 19:42:56.295145  2114 net.cpp:164] Top shape: 1 512 88 88 (3964928)
I0415 19:42:56.295148  2114 layer_factory.hpp:76] Creating layer conv4_3
I0415 19:42:56.295152  2114 net.cpp:111] Creating Layer conv4_3
I0415 19:42:56.295156  2114 net.cpp:478] conv4_3 <- conv4_2
I0415 19:42:56.295161  2114 net.cpp:434] conv4_3 -> conv4_3
I0415 19:42:56.298598  2114 net.cpp:156] Setting up conv4_3
I0415 19:42:56.298619  2114 net.cpp:164] Top shape: 1 512 88 88 (3964928)
I0415 19:42:56.298625  2114 layer_factory.hpp:76] Creating layer relu4_3
I0415 19:42:56.298632  2114 net.cpp:111] Creating Layer relu4_3
I0415 19:42:56.298635  2114 net.cpp:478] relu4_3 <- conv4_3
I0415 19:42:56.298640  2114 net.cpp:420] relu4_3 -> conv4_3 (in-place)
I0415 19:42:56.298645  2114 net.cpp:156] Setting up relu4_3
I0415 19:42:56.298658  2114 net.cpp:164] Top shape: 1 512 88 88 (3964928)
I0415 19:42:56.298661  2114 layer_factory.hpp:76] Creating layer pool4
I0415 19:42:56.298668  2114 net.cpp:111] Creating Layer pool4
I0415 19:42:56.298671  2114 net.cpp:478] pool4 <- conv4_3
I0415 19:42:56.298676  2114 net.cpp:434] pool4 -> pool4
I0415 19:42:56.298682  2114 net.cpp:156] Setting up pool4
I0415 19:42:56.298686  2114 net.cpp:164] Top shape: 1 512 44 44 (991232)
I0415 19:42:56.298688  2114 layer_factory.hpp:76] Creating layer pool4_pool4_0_split
I0415 19:42:56.298694  2114 net.cpp:111] Creating Layer pool4_pool4_0_split
I0415 19:42:56.298723  2114 net.cpp:478] pool4_pool4_0_split <- pool4
I0415 19:42:56.298728  2114 net.cpp:434] pool4_pool4_0_split -> pool4_pool4_0_split_0
I0415 19:42:56.298733  2114 net.cpp:434] pool4_pool4_0_split -> pool4_pool4_0_split_1
I0415 19:42:56.298739  2114 net.cpp:156] Setting up pool4_pool4_0_split
I0415 19:42:56.298743  2114 net.cpp:164] Top shape: 1 512 44 44 (991232)
I0415 19:42:56.298745  2114 net.cpp:164] Top shape: 1 512 44 44 (991232)
I0415 19:42:56.298748  2114 layer_factory.hpp:76] Creating layer conv5_1
I0415 19:42:56.298755  2114 net.cpp:111] Creating Layer conv5_1
I0415 19:42:56.298759  2114 net.cpp:478] conv5_1 <- pool4_pool4_0_split_0
I0415 19:42:56.298766  2114 net.cpp:434] conv5_1 -> conv5_1
I0415 19:42:56.301797  2114 net.cpp:156] Setting up conv5_1
I0415 19:42:56.301816  2114 net.cpp:164] Top shape: 1 512 44 44 (991232)
I0415 19:42:56.301825  2114 layer_factory.hpp:76] Creating layer relu5_1
I0415 19:42:56.301831  2114 net.cpp:111] Creating Layer relu5_1
I0415 19:42:56.301834  2114 net.cpp:478] relu5_1 <- conv5_1
I0415 19:42:56.301846  2114 net.cpp:420] relu5_1 -> conv5_1 (in-place)
I0415 19:42:56.301926  2114 net.cpp:156] Setting up relu5_1
I0415 19:42:56.301931  2114 net.cpp:164] Top shape: 1 512 44 44 (991232)
I0415 19:42:56.301934  2114 layer_factory.hpp:76] Creating layer conv5_2
I0415 19:42:56.301939  2114 net.cpp:111] Creating Layer conv5_2
I0415 19:42:56.301941  2114 net.cpp:478] conv5_2 <- conv5_1
I0415 19:42:56.301946  2114 net.cpp:434] conv5_2 -> conv5_2
I0415 19:42:56.305390  2114 net.cpp:156] Setting up conv5_2
I0415 19:42:56.305410  2114 net.cpp:164] Top shape: 1 512 44 44 (991232)
I0415 19:42:56.305418  2114 layer_factory.hpp:76] Creating layer relu5_2
I0415 19:42:56.305423  2114 net.cpp:111] Creating Layer relu5_2
I0415 19:42:56.305425  2114 net.cpp:478] relu5_2 <- conv5_2
I0415 19:42:56.305429  2114 net.cpp:420] relu5_2 -> conv5_2 (in-place)
I0415 19:42:56.305435  2114 net.cpp:156] Setting up relu5_2
I0415 19:42:56.305439  2114 net.cpp:164] Top shape: 1 512 44 44 (991232)
I0415 19:42:56.305441  2114 layer_factory.hpp:76] Creating layer conv5_3
I0415 19:42:56.305449  2114 net.cpp:111] Creating Layer conv5_3
I0415 19:42:56.305451  2114 net.cpp:478] conv5_3 <- conv5_2
I0415 19:42:56.305456  2114 net.cpp:434] conv5_3 -> conv5_3
I0415 19:42:56.308459  2114 net.cpp:156] Setting up conv5_3
I0415 19:42:56.308475  2114 net.cpp:164] Top shape: 1 512 44 44 (991232)
I0415 19:42:56.308480  2114 layer_factory.hpp:76] Creating layer relu5_3
I0415 19:42:56.308491  2114 net.cpp:111] Creating Layer relu5_3
I0415 19:42:56.308495  2114 net.cpp:478] relu5_3 <- conv5_3
I0415 19:42:56.308498  2114 net.cpp:420] relu5_3 -> conv5_3 (in-place)
I0415 19:42:56.308507  2114 net.cpp:156] Setting up relu5_3
I0415 19:42:56.308511  2114 net.cpp:164] Top shape: 1 512 44 44 (991232)
I0415 19:42:56.308514  2114 layer_factory.hpp:76] Creating layer pool5
I0415 19:42:56.308521  2114 net.cpp:111] Creating Layer pool5
I0415 19:42:56.308523  2114 net.cpp:478] pool5 <- conv5_3
I0415 19:42:56.308527  2114 net.cpp:434] pool5 -> pool5
I0415 19:42:56.308535  2114 net.cpp:156] Setting up pool5
I0415 19:42:56.308557  2114 net.cpp:164] Top shape: 1 512 22 22 (247808)
I0415 19:42:56.308560  2114 layer_factory.hpp:76] Creating layer fc6
I0415 19:42:56.308568  2114 net.cpp:111] Creating Layer fc6
I0415 19:42:56.308570  2114 net.cpp:478] fc6 <- pool5
I0415 19:42:56.308575  2114 net.cpp:434] fc6 -> fc6
I0415 19:42:56.493921  2114 net.cpp:156] Setting up fc6
I0415 19:42:56.493965  2114 net.cpp:164] Top shape: 1 4096 16 16 (1048576)
I0415 19:42:56.493978  2114 layer_factory.hpp:76] Creating layer relu6
I0415 19:42:56.493988  2114 net.cpp:111] Creating Layer relu6
I0415 19:42:56.493993  2114 net.cpp:478] relu6 <- fc6
I0415 19:42:56.493999  2114 net.cpp:420] relu6 -> fc6 (in-place)
I0415 19:42:56.494009  2114 net.cpp:156] Setting up relu6
I0415 19:42:56.494014  2114 net.cpp:164] Top shape: 1 4096 16 16 (1048576)
I0415 19:42:56.494015  2114 layer_factory.hpp:76] Creating layer drop6
I0415 19:42:56.494022  2114 net.cpp:111] Creating Layer drop6
I0415 19:42:56.494024  2114 net.cpp:478] drop6 <- fc6
I0415 19:42:56.494031  2114 net.cpp:420] drop6 -> fc6 (in-place)
I0415 19:42:56.494037  2114 net.cpp:156] Setting up drop6
I0415 19:42:56.494045  2114 net.cpp:164] Top shape: 1 4096 16 16 (1048576)
I0415 19:42:56.494047  2114 layer_factory.hpp:76] Creating layer fc7
I0415 19:42:56.494053  2114 net.cpp:111] Creating Layer fc7
I0415 19:42:56.494055  2114 net.cpp:478] fc7 <- fc6
I0415 19:42:56.494060  2114 net.cpp:434] fc7 -> fc7
I0415 19:42:56.526144  2114 net.cpp:156] Setting up fc7
I0415 19:42:56.526185  2114 net.cpp:164] Top shape: 1 4096 16 16 (1048576)
I0415 19:42:56.526197  2114 layer_factory.hpp:76] Creating layer relu7
I0415 19:42:56.526209  2114 net.cpp:111] Creating Layer relu7
I0415 19:42:56.526214  2114 net.cpp:478] relu7 <- fc7
I0415 19:42:56.526221  2114 net.cpp:420] relu7 -> fc7 (in-place)
I0415 19:42:56.526231  2114 net.cpp:156] Setting up relu7
I0415 19:42:56.526233  2114 net.cpp:164] Top shape: 1 4096 16 16 (1048576)
I0415 19:42:56.526243  2114 layer_factory.hpp:76] Creating layer drop7
I0415 19:42:56.526249  2114 net.cpp:111] Creating Layer drop7
I0415 19:42:56.526253  2114 net.cpp:478] drop7 <- fc7
I0415 19:42:56.526257  2114 net.cpp:420] drop7 -> fc7 (in-place)
I0415 19:42:56.526264  2114 net.cpp:156] Setting up drop7
I0415 19:42:56.526269  2114 net.cpp:164] Top shape: 1 4096 16 16 (1048576)
I0415 19:42:56.526273  2114 layer_factory.hpp:76] Creating layer score-fr
I0415 19:42:56.526278  2114 net.cpp:111] Creating Layer score-fr
I0415 19:42:56.526304  2114 net.cpp:478] score-fr <- fc7
I0415 19:42:56.526310  2114 net.cpp:434] score-fr -> score
I0415 19:42:56.526489  2114 net.cpp:156] Setting up score-fr
I0415 19:42:56.526499  2114 net.cpp:164] Top shape: 1 21 16 16 (5376)
I0415 19:42:56.526504  2114 layer_factory.hpp:76] Creating layer score2
I0415 19:42:56.526512  2114 net.cpp:111] Creating Layer score2
I0415 19:42:56.526515  2114 net.cpp:478] score2 <- score
I0415 19:42:56.526520  2114 net.cpp:434] score2 -> score2
I0415 19:42:56.526859  2114 net.cpp:156] Setting up score2
I0415 19:42:56.526870  2114 net.cpp:164] Top shape: 1 21 34 34 (24276)
I0415 19:42:56.526885  2114 layer_factory.hpp:76] Creating layer score2_score2_0_split
I0415 19:42:56.526893  2114 net.cpp:111] Creating Layer score2_score2_0_split
I0415 19:42:56.526898  2114 net.cpp:478] score2_score2_0_split <- score2
I0415 19:42:56.526903  2114 net.cpp:434] score2_score2_0_split -> score2_score2_0_split_0
I0415 19:42:56.526909  2114 net.cpp:434] score2_score2_0_split -> score2_score2_0_split_1
I0415 19:42:56.526916  2114 net.cpp:156] Setting up score2_score2_0_split
I0415 19:42:56.526918  2114 net.cpp:164] Top shape: 1 21 34 34 (24276)
I0415 19:42:56.526921  2114 net.cpp:164] Top shape: 1 21 34 34 (24276)
I0415 19:42:56.526924  2114 layer_factory.hpp:76] Creating layer score-pool4
I0415 19:42:56.526932  2114 net.cpp:111] Creating Layer score-pool4
I0415 19:42:56.526934  2114 net.cpp:478] score-pool4 <- pool4_pool4_0_split_1
I0415 19:42:56.526940  2114 net.cpp:434] score-pool4 -> score-pool4
I0415 19:42:56.526979  2114 net.cpp:156] Setting up score-pool4
I0415 19:42:56.526989  2114 net.cpp:164] Top shape: 1 21 44 44 (40656)
I0415 19:42:56.526994  2114 layer_factory.hpp:76] Creating layer crop
I0415 19:42:56.526999  2114 net.cpp:111] Creating Layer crop
I0415 19:42:56.527003  2114 net.cpp:478] crop <- score-pool4
I0415 19:42:56.527006  2114 net.cpp:478] crop <- score2_score2_0_split_0
I0415 19:42:56.527010  2114 net.cpp:434] crop -> score-pool4c
I0415 19:42:56.527052  2114 net.cpp:156] Setting up crop
I0415 19:42:56.527061  2114 net.cpp:164] Top shape: 1 21 34 34 (24276)
I0415 19:42:56.527063  2114 layer_factory.hpp:76] Creating layer fuse
I0415 19:42:56.527068  2114 net.cpp:111] Creating Layer fuse
I0415 19:42:56.527071  2114 net.cpp:478] fuse <- score2_score2_0_split_1
I0415 19:42:56.527076  2114 net.cpp:478] fuse <- score-pool4c
I0415 19:42:56.527082  2114 net.cpp:434] fuse -> score-fused
I0415 19:42:56.527089  2114 net.cpp:156] Setting up fuse
I0415 19:42:56.527096  2114 net.cpp:164] Top shape: 1 21 34 34 (24276)
I0415 19:42:56.527098  2114 layer_factory.hpp:76] Creating layer score4
I0415 19:42:56.527103  2114 net.cpp:111] Creating Layer score4
I0415 19:42:56.527107  2114 net.cpp:478] score4 <- score-fused
I0415 19:42:56.527112  2114 net.cpp:434] score4 -> score4
I0415 19:42:56.527132  2114 net.cpp:156] Setting up score4
I0415 19:42:56.527139  2114 net.cpp:164] Top shape: 1 21 70 70 (102900)
I0415 19:42:56.527143  2114 layer_factory.hpp:76] Creating layer score4_score4_0_split
I0415 19:42:56.527149  2114 net.cpp:111] Creating Layer score4_score4_0_split
I0415 19:42:56.527154  2114 net.cpp:478] score4_score4_0_split <- score4
I0415 19:42:56.527158  2114 net.cpp:434] score4_score4_0_split -> score4_score4_0_split_0
I0415 19:42:56.527166  2114 net.cpp:434] score4_score4_0_split -> score4_score4_0_split_1
I0415 19:42:56.527175  2114 net.cpp:156] Setting up score4_score4_0_split
I0415 19:42:56.527179  2114 net.cpp:164] Top shape: 1 21 70 70 (102900)
I0415 19:42:56.527182  2114 net.cpp:164] Top shape: 1 21 70 70 (102900)
I0415 19:42:56.527184  2114 layer_factory.hpp:76] Creating layer score-pool3
I0415 19:42:56.527189  2114 net.cpp:111] Creating Layer score-pool3
I0415 19:42:56.527194  2114 net.cpp:478] score-pool3 <- pool3_pool3_0_split_1
I0415 19:42:56.527199  2114 net.cpp:434] score-pool3 -> score-pool3
I0415 19:42:56.527235  2114 net.cpp:156] Setting up score-pool3
I0415 19:42:56.527261  2114 net.cpp:164] Top shape: 1 21 88 88 (162624)
I0415 19:42:56.527266  2114 layer_factory.hpp:76] Creating layer crop
I0415 19:42:56.527269  2114 net.cpp:111] Creating Layer crop
I0415 19:42:56.527272  2114 net.cpp:478] crop <- score-pool3
I0415 19:42:56.527276  2114 net.cpp:478] crop <- score4_score4_0_split_0
I0415 19:42:56.527282  2114 net.cpp:434] crop -> score-pool3c
I0415 19:42:56.527317  2114 net.cpp:156] Setting up crop
I0415 19:42:56.527324  2114 net.cpp:164] Top shape: 1 21 70 70 (102900)
I0415 19:42:56.527326  2114 layer_factory.hpp:76] Creating layer fuse
I0415 19:42:56.527331  2114 net.cpp:111] Creating Layer fuse
I0415 19:42:56.527338  2114 net.cpp:478] fuse <- score4_score4_0_split_1
I0415 19:42:56.527341  2114 net.cpp:478] fuse <- score-pool3c
I0415 19:42:56.527345  2114 net.cpp:434] fuse -> score-final
I0415 19:42:56.527353  2114 net.cpp:156] Setting up fuse
I0415 19:42:56.527355  2114 net.cpp:164] Top shape: 1 21 70 70 (102900)
I0415 19:42:56.527359  2114 layer_factory.hpp:76] Creating layer upsample
I0415 19:42:56.527362  2114 net.cpp:111] Creating Layer upsample
I0415 19:42:56.527369  2114 net.cpp:478] upsample <- score-final
I0415 19:42:56.527374  2114 net.cpp:434] upsample -> bigscore
I0415 19:42:56.527586  2114 net.cpp:156] Setting up upsample
I0415 19:42:56.527596  2114 net.cpp:164] Top shape: 1 21 568 568 (6775104)
I0415 19:42:56.527601  2114 layer_factory.hpp:76] Creating layer crop
I0415 19:42:56.527607  2114 net.cpp:111] Creating Layer crop
I0415 19:42:56.527611  2114 net.cpp:478] crop <- bigscore
I0415 19:42:56.527613  2114 net.cpp:478] crop <- data_input_0_split_1
I0415 19:42:56.527617  2114 net.cpp:434] crop -> coarse
I0415 19:42:56.527667  2114 net.cpp:156] Setting up crop
I0415 19:42:56.527675  2114 net.cpp:164] Top shape: 1 21 500 500 (5250000)
I0415 19:42:56.527678  2114 layer_factory.hpp:76] Creating layer splitting
I0415 19:42:56.527683  2114 net.cpp:111] Creating Layer splitting
I0415 19:42:56.527685  2114 net.cpp:478] splitting <- coarse
I0415 19:42:56.527689  2114 net.cpp:434] splitting -> unary
I0415 19:42:56.527695  2114 net.cpp:434] splitting -> Q0
I0415 19:42:56.527700  2114 net.cpp:156] Setting up splitting
I0415 19:42:56.527704  2114 net.cpp:164] Top shape: 1 21 500 500 (5250000)
I0415 19:42:56.527707  2114 net.cpp:164] Top shape: 1 21 500 500 (5250000)
I0415 19:42:56.527709  2114 layer_factory.hpp:76] Creating layer inference1-ft
I0415 19:42:56.527715  2114 net.cpp:111] Creating Layer inference1-ft
I0415 19:42:56.527719  2114 net.cpp:478] inference1-ft <- unary
I0415 19:42:56.527722  2114 net.cpp:478] inference1-ft <- Q0
I0415 19:42:56.527725  2114 net.cpp:478] inference1-ft <- data_input_0_split_2
I0415 19:42:56.527732  2114 net.cpp:434] inference1-ft -> pred
I0415 19:42:56.527741  2114 multi_stage_meanfield.cpp:53] This implementation has not been tested batch size > 1.
I0415 19:42:56.527788  2114 multi_stage_meanfield.cpp:98] Initializing custom matrix
I0415 19:42:56.579085  2114 multi_stage_meanfield.cpp:661] MultiStageMeanfieldLayer initialized.
I0415 19:42:56.579123  2114 net.cpp:156] Setting up inference1-ft
I0415 19:42:56.579131  2114 net.cpp:164] Top shape: 1 21 500 500 (5250000)
I0415 19:42:56.579143  2114 net.cpp:241] inference1-ft does not need backward computation.
I0415 19:42:56.579149  2114 net.cpp:241] splitting does not need backward computation.
I0415 19:42:56.579151  2114 net.cpp:241] crop does not need backward computation.
I0415 19:42:56.579154  2114 net.cpp:241] upsample does not need backward computation.
I0415 19:42:56.579157  2114 net.cpp:241] fuse does not need backward computation.
…
