WARNING: Logging before InitGoogleLogging() is written to STDERR
I0415 20:05:28.620596  2774 net.cpp:50] Initializing net from parameters: 
name: "CRFRNN-VOC"
input: "data-ft"
input_dim: 1
input_dim: 3
input_dim: 500
input_dim: 500
force_backward: true
state {
  phase: TEST
}
layer {
  name: "conv1_1"
  type: "Convolution"
  bottom: "data-ft"
  top: "conv1_1"
  param {
    lr_mult: 1
    decay_mult: 1
  }
  param {
    lr_mult: 2
    decay_mult: 0
  }
  convolution_param {
    num_output: 64
    pad: 100
    kernel_size: 3
    engine: CAFFE
  }
}
layer {
  name: "relu1_1-ft"
  type: "ReLU"
  bottom: "conv1_1"
  top: "conv1_1"
}
layer {
  name: "conv1_2"
  type: "Convolution"
  bottom: "conv1_1"
  top: "conv1_2"
  param {
    lr_mult: 1
    decay_mult: 1
  }
  param {
    lr_mult: 2
    decay_mult: 0
  }
  convolution_param {
    num_output: 64
    pad: 1
    kernel_size: 3
    engine: CAFFE
  }
}
layer {
  name: "relu1_2-ft"
  type: "ReLU"
  bottom: "conv1_2"
  top: "conv1_2"
}
layer {
  name: "pool1-ft"
  type: "Pooling"
  bottom: "conv1_2"
  top: "pool1-ft"
  pooling_param {
    pool: MAX
    kernel_size: 2
    stride: 2
  }
}
layer {
  name: "conv2_1"
  type: "Convolution"
  bottom: "pool1-ft"
  top: "conv2_1"
  param {
    lr_mult: 1
    decay_mult: 1
  }
  param {
    lr_mult: 2
    decay_mult: 0
  }
  convolution_param {
    num_output: 128
    pad: 1
    kernel_size: 3
    engine: CAFFE
  }
}
layer {
  name: "relu2_1-ft"
  type: "ReLU"
  bottom: "conv2_1"
  top: "conv2_1"
}
layer {
  name: "conv2_2"
  type: "Convolution"
  bottom: "conv2_1"
  top: "conv2_2"
  param {
    lr_mult: 1
    decay_mult: 1
  }
  param {
    lr_mult: 2
    decay_mult: 0
  }
  convolution_param {
    num_output: 128
    pad: 1
    kernel_size: 3
    engine: CAFFE
  }
}
layer {
  name: "relu2_2-ft"
  type: "ReLU"
  bottom: "conv2_2"
  top: "conv2_2"
}
layer {
  name: "pool2-ft"
  type: "Pooling"
  bottom: "conv2_2"
  top: "pool2-ft"
  pooling_param {
    pool: MAX
    kernel_size: 2
    stride: 2
  }
}
layer {
  name: "conv3_1"
  type: "Convolution"
  bottom: "pool2-ft"
  top: "conv3_1"
  param {
    lr_mult: 1
    decay_mult: 1
  }
  param {
    lr_mult: 2
    decay_mult: 0
  }
  convolution_param {
    num_output: 256
    pad: 1
    kernel_size: 3
    engine: CAFFE
  }
}
layer {
  name: "relu3_1-ft"
  type: "ReLU"
  bottom: "conv3_1"
  top: "conv3_1"
}
layer {
  name: "conv3_2"
  type: "Convolution"
  bottom: "conv3_1"
  top: "conv3_2"
  param {
    lr_mult: 1
    decay_mult: 1
  }
  param {
    lr_mult: 2
    decay_mult: 0
  }
  convolution_param {
    num_output: 256
    pad: 1
    kernel_size: 3
    engine: CAFFE
  }
}
layer {
  name: "relu3_2-ft"
  type: "ReLU"
  bottom: "conv3_2"
  top: "conv3_2"
}
layer {
  name: "conv3_3"
  type: "Convolution"
  bottom: "conv3_2"
  top: "conv3_3"
  param {
    lr_mult: 1
    decay_mult: 1
  }
  param {
    lr_mult: 2
    decay_mult: 0
  }
  convolution_param {
    num_output: 256
    pad: 1
    kernel_size: 3
    engine: CAFFE
  }
}
layer {
  name: "relu3_3-ft"
  type: "ReLU"
  bottom: "conv3_3"
  top: "conv3_3"
}
layer {
  name: "pool3-ft"
  type: "Pooling"
  bottom: "conv3_3"
  top: "pool3-ft"
  pooling_param {
    pool: MAX
    kernel_size: 2
    stride: 2
  }
}
layer {
  name: "conv4_1"
  type: "Convolution"
  bottom: "pool3-ft"
  top: "conv4_1"
  param {
    lr_mult: 1
    decay_mult: 1
  }
  param {
    lr_mult: 2
    decay_mult: 0
  }
  convolution_param {
    num_output: 512
    pad: 1
    kernel_size: 3
    engine: CAFFE
  }
}
layer {
  name: "relu4_1-ft"
  type: "ReLU"
  bottom: "conv4_1"
  top: "conv4_1"
}
layer {
  name: "conv4_2"
  type: "Convolution"
  bottom: "conv4_1"
  top: "conv4_2"
  param {
    lr_mult: 1
    decay_mult: 1
  }
  param {
    lr_mult: 2
    decay_mult: 0
  }
  convolution_param {
    num_output: 512
    pad: 1
    kernel_size: 3
    engine: CAFFE
  }
}
layer {
  name: "relu4_2-ft"
  type: "ReLU"
  bottom: "conv4_2"
  top: "conv4_2"
}
layer {
  name: "conv4_3"
  type: "Convolution"
  bottom: "conv4_2"
  top: "conv4_3"
  param {
    lr_mult: 1
    decay_mult: 1
  }
  param {
    lr_mult: 2
    decay_mult: 0
  }
  convolution_param {
    num_output: 512
    pad: 1
    kernel_size: 3
    engine: CAFFE
  }
}
layer {
  name: "relu4_3-ft"
  type: "ReLU"
  bottom: "conv4_3"
  top: "conv4_3"
}
layer {
  name: "pool4-ft"
  type: "Pooling"
  bottom: "conv4_3"
  top: "pool4-ft"
  pooling_param {
    pool: MAX
    kernel_size: 2
    stride: 2
  }
}
layer {
  name: "conv5_1"
  type: "Convolution"
  bottom: "pool4-ft"
  top: "conv5_1"
  param {
    lr_mult: 1
    decay_mult: 1
  }
  param {
    lr_mult: 2
    decay_mult: 0
  }
  convolution_param {
    num_output: 512
    pad: 1
    kernel_size: 3
    engine: CAFFE
  }
}
layer {
  name: "relu5_1-ft"
  type: "ReLU"
  bottom: "conv5_1"
  top: "conv5_1"
}
layer {
  name: "conv5_2"
  type: "Convolution"
  bottom: "conv5_1"
  top: "conv5_2"
  param {
    lr_mult: 1
    decay_mult: 1
  }
  param {
    lr_mult: 2
    decay_mult: 0
  }
  convolution_param {
    num_output: 512
    pad: 1
    kernel_size: 3
    engine: CAFFE
  }
}
layer {
  name: "relu5_2-ft"
  type: "ReLU"
  bottom: "conv5_2"
  top: "conv5_2"
}
layer {
  name: "conv5_3"
  type: "Convolution"
  bottom: "conv5_2"
  top: "conv5_3"
  param {
    lr_mult: 1
    decay_mult: 1
  }
  param {
    lr_mult: 2
    decay_mult: 0
  }
  convolution_param {
    num_output: 512
    pad: 1
    kernel_size: 3
    engine: CAFFE
  }
}
layer {
  name: "relu5_3-ft"
  type: "ReLU"
  bottom: "conv5_3"
  top: "conv5_3"
}
layer {
  name: "pool5-ft"
  type: "Pooling"
  bottom: "conv5_3"
  top: "pool5-ft"
  pooling_param {
    pool: MAX
    kernel_size: 2
    stride: 2
  }
}
layer {
  name: "fc6"
  type: "Convolution"
  bottom: "pool5-ft"
  top: "fc6"
  param {
    lr_mult: 1
    decay_mult: 1
  }
  param {
    lr_mult: 2
    decay_mult: 0
  }
  convolution_param {
    num_output: 4096
    kernel_size: 7
    engine: CAFFE
  }
}
layer {
  name: "relu6-ft"
  type: "ReLU"
  bottom: "fc6"
  top: "fc6"
}
layer {
  name: "drop6-ft"
  type: "Dropout"
  bottom: "fc6"
  top: "fc6"
  dropout_param {
    dropout_ratio: 0.5
  }
}
layer {
  name: "fc7"
  type: "Convolution"
  bottom: "fc6"
  top: "fc7"
  param {
    lr_mult: 1
    decay_mult: 1
  }
  param {
    lr_mult: 2
    decay_mult: 0
  }
  convolution_param {
    num_output: 4096
    kernel_size: 1
    engine: CAFFE
  }
}
layer {
  name: "relu7-ft"
  type: "ReLU"
  bottom: "fc7"
  top: "fc7"
}
layer {
  name: "drop7-ft"
  type: "Dropout"
  bottom: "fc7"
  top: "fc7"
  dropout_param {
    dropout_ratio: 0.5
  }
}
layer {
  name: "score-fr"
  type: "Convolution"
  bottom: "fc7"
  top: "score"
  param {
    lr_mult: 1
    decay_mult: 1
  }
  param {
    lr_mult: 2
    decay_mult: 0
  }
  convolution_param {
    num_output: 21
    kernel_size: 1
    engine: CAFFE
  }
}
layer {
  name: "score2"
  type: "Deconvolution"
  bottom: "score"
  top: "score2"
  param {
    lr_mult: 1
  }
  convolution_param {
    num_output: 21
    kernel_size: 4
    stride: 2
    weight_filler {
      type: "bilinear"
    }
  }
}
layer {
  name: "score-pool4"
  type: "Convolution"
  bottom: "pool4-ft"
  top: "score-pool4"
  param {
    lr_mult: 1
    decay_mult: 1
  }
  param {
    lr_mult: 2
    decay_mult: 0
  }
  convolution_param {
    num_output: 21
    kernel_size: 1
    engine: CAFFE
  }
}
layer {
  name: "crop-ft"
  type: "Crop"
  bottom: "score-pool4"
  bottom: "score2"
  top: "score-pool4c"
}
layer {
  name: "fuse-ft"
  type: "Eltwise"
  bottom: "score2"
  bottom: "score-pool4c"
  top: "score-fused"
  eltwise_param {
    operation: SUM
  }
}
layer {
  name: "score4"
  type: "Deconvolution"
  bottom: "score-fused"
  top: "score4"
  param {
    lr_mult: 1
    decay_mult: 1
  }
  convolution_param {
    num_output: 21
    bias_term: false
    kernel_size: 4
    stride: 2
  }
}
layer {
  name: "score-pool3"
  type: "Convolution"
  bottom: "pool3-ft"
  top: "score-pool3"
  param {
    lr_mult: 1
    decay_mult: 1
  }
  param {
    lr_mult: 2
    decay_mult: 0
  }
  convolution_param {
    num_output: 21
    kernel_size: 1
    engine: CAFFE
  }
}
layer {
  name: "crop-ft"
  type: "Crop"
  bottom: "score-pool3"
  bottom: "score4"
  top: "score-pool3c"
}
layer {
  name: "fuse-ft"
  type: "Eltwise"
  bottom: "score4"
  bottom: "score-pool3c"
  top: "score-final"
  eltwise_param {
    operation: SUM
  }
}
layer {
  name: "upsample-ft"
  type: "Deconvolution"
  bottom: "score-final"
  top: "bigscore"
  param {
    lr_mult: 0
  }
  convolution_param {
    num_output: 21
    bias_term: false
    kernel_size: 16
    stride: 8
  }
}
layer {
  name: "crop-ft"
  type: "Crop"
  bottom: "bigscore"
  bottom: "data-ft"
  top: "coarse-ft"
}
layer {
  name: "splitting-ft"
  type: "Split"
  bottom: "coarse-ft"
  top: "unary-ft"
  top: "Q0-ft"
}
layer {
  name: "inference1-ft"
  type: "MultiStageMeanfield"
  bottom: "unary-ft"
  bottom: "Q0-ft"
  bottom: "data-ft"
  top: "pred-ft"
  param {
    lr_mult: 10000
  }
  param {
    lr_mult: 10000
  }
  param {
    lr_mult: 10000
  }
  multi_stage_meanfield_param {
    compatibility_mode: CUSTOM
    threshold: 2
    theta_alpha: 160
    theta_beta: 3
    theta_gamma: 3
    num_iterations: 10
    spatial_filter_weight: 3
    bilateral_filter_weight: 5
  }
}
I0415 20:05:28.620848  2774 net.cpp:436] Input 0 -> data-ft
I0415 20:05:28.620873  2774 layer_factory.hpp:76] Creating layer data-ft_input_0_split
I0415 20:05:28.620882  2774 net.cpp:111] Creating Layer data-ft_input_0_split
I0415 20:05:28.620884  2774 net.cpp:478] data-ft_input_0_split <- data-ft
I0415 20:05:28.620889  2774 net.cpp:434] data-ft_input_0_split -> data-ft_input_0_split_0
I0415 20:05:28.620895  2774 net.cpp:434] data-ft_input_0_split -> data-ft_input_0_split_1
I0415 20:05:28.620901  2774 net.cpp:434] data-ft_input_0_split -> data-ft_input_0_split_2
I0415 20:05:28.620908  2774 net.cpp:156] Setting up data-ft_input_0_split
I0415 20:05:28.620913  2774 net.cpp:164] Top shape: 1 3 500 500 (750000)
I0415 20:05:28.620916  2774 net.cpp:164] Top shape: 1 3 500 500 (750000)
I0415 20:05:28.620919  2774 net.cpp:164] Top shape: 1 3 500 500 (750000)
I0415 20:05:28.620923  2774 layer_factory.hpp:76] Creating layer conv1_1
I0415 20:05:28.620931  2774 net.cpp:111] Creating Layer conv1_1
I0415 20:05:28.620934  2774 net.cpp:478] conv1_1 <- data-ft_input_0_split_0
I0415 20:05:28.620939  2774 net.cpp:434] conv1_1 -> conv1_1
I0415 20:05:28.621870  2774 net.cpp:156] Setting up conv1_1
I0415 20:05:28.621883  2774 net.cpp:164] Top shape: 1 64 698 698 (31181056)
I0415 20:05:28.621914  2774 layer_factory.hpp:76] Creating layer relu1_1-ft
I0415 20:05:28.621923  2774 net.cpp:111] Creating Layer relu1_1-ft
I0415 20:05:28.621927  2774 net.cpp:478] relu1_1-ft <- conv1_1
I0415 20:05:28.621930  2774 net.cpp:420] relu1_1-ft -> conv1_1 (in-place)
I0415 20:05:28.621959  2774 net.cpp:156] Setting up relu1_1-ft
I0415 20:05:28.621963  2774 net.cpp:164] Top shape: 1 64 698 698 (31181056)
I0415 20:05:28.621966  2774 layer_factory.hpp:76] Creating layer conv1_2
I0415 20:05:28.621974  2774 net.cpp:111] Creating Layer conv1_2
I0415 20:05:28.621979  2774 net.cpp:478] conv1_2 <- conv1_1
I0415 20:05:28.621984  2774 net.cpp:434] conv1_2 -> conv1_2
I0415 20:05:28.622959  2774 net.cpp:156] Setting up conv1_2
I0415 20:05:28.622970  2774 net.cpp:164] Top shape: 1 64 698 698 (31181056)
I0415 20:05:28.622977  2774 layer_factory.hpp:76] Creating layer relu1_2-ft
I0415 20:05:28.622982  2774 net.cpp:111] Creating Layer relu1_2-ft
I0415 20:05:28.622984  2774 net.cpp:478] relu1_2-ft <- conv1_2
I0415 20:05:28.622990  2774 net.cpp:420] relu1_2-ft -> conv1_2 (in-place)
I0415 20:05:28.622995  2774 net.cpp:156] Setting up relu1_2-ft
I0415 20:05:28.622998  2774 net.cpp:164] Top shape: 1 64 698 698 (31181056)
I0415 20:05:28.623001  2774 layer_factory.hpp:76] Creating layer pool1-ft
I0415 20:05:28.623005  2774 net.cpp:111] Creating Layer pool1-ft
I0415 20:05:28.623025  2774 net.cpp:478] pool1-ft <- conv1_2
I0415 20:05:28.623031  2774 net.cpp:434] pool1-ft -> pool1-ft
I0415 20:05:28.623039  2774 net.cpp:156] Setting up pool1-ft
I0415 20:05:28.623044  2774 net.cpp:164] Top shape: 1 64 349 349 (7795264)
I0415 20:05:28.623045  2774 layer_factory.hpp:76] Creating layer conv2_1
I0415 20:05:28.623049  2774 net.cpp:111] Creating Layer conv2_1
I0415 20:05:28.623051  2774 net.cpp:478] conv2_1 <- pool1-ft
I0415 20:05:28.623057  2774 net.cpp:434] conv2_1 -> conv2_1
I0415 20:05:28.623476  2774 net.cpp:156] Setting up conv2_1
I0415 20:05:28.623486  2774 net.cpp:164] Top shape: 1 128 349 349 (15590528)
I0415 20:05:28.623495  2774 layer_factory.hpp:76] Creating layer relu2_1-ft
I0415 20:05:28.623500  2774 net.cpp:111] Creating Layer relu2_1-ft
I0415 20:05:28.623503  2774 net.cpp:478] relu2_1-ft <- conv2_1
I0415 20:05:28.623507  2774 net.cpp:420] relu2_1-ft -> conv2_1 (in-place)
I0415 20:05:28.623512  2774 net.cpp:156] Setting up relu2_1-ft
I0415 20:05:28.623514  2774 net.cpp:164] Top shape: 1 128 349 349 (15590528)
I0415 20:05:28.623517  2774 layer_factory.hpp:76] Creating layer conv2_2
I0415 20:05:28.623531  2774 net.cpp:111] Creating Layer conv2_2
I0415 20:05:28.623538  2774 net.cpp:478] conv2_2 <- conv2_1
I0415 20:05:28.623541  2774 net.cpp:434] conv2_2 -> conv2_2
I0415 20:05:28.624058  2774 net.cpp:156] Setting up conv2_2
I0415 20:05:28.624069  2774 net.cpp:164] Top shape: 1 128 349 349 (15590528)
I0415 20:05:28.624074  2774 layer_factory.hpp:76] Creating layer relu2_2-ft
I0415 20:05:28.624078  2774 net.cpp:111] Creating Layer relu2_2-ft
I0415 20:05:28.624080  2774 net.cpp:478] relu2_2-ft <- conv2_2
I0415 20:05:28.624086  2774 net.cpp:420] relu2_2-ft -> conv2_2 (in-place)
I0415 20:05:28.624094  2774 net.cpp:156] Setting up relu2_2-ft
I0415 20:05:28.624097  2774 net.cpp:164] Top shape: 1 128 349 349 (15590528)
I0415 20:05:28.624099  2774 layer_factory.hpp:76] Creating layer pool2-ft
I0415 20:05:28.624104  2774 net.cpp:111] Creating Layer pool2-ft
I0415 20:05:28.624107  2774 net.cpp:478] pool2-ft <- conv2_2
I0415 20:05:28.624111  2774 net.cpp:434] pool2-ft -> pool2-ft
I0415 20:05:28.624116  2774 net.cpp:156] Setting up pool2-ft
I0415 20:05:28.624124  2774 net.cpp:164] Top shape: 1 128 175 175 (3920000)
I0415 20:05:28.624125  2774 layer_factory.hpp:76] Creating layer conv3_1
I0415 20:05:28.624130  2774 net.cpp:111] Creating Layer conv3_1
I0415 20:05:28.624132  2774 net.cpp:478] conv3_1 <- pool2-ft
I0415 20:05:28.624140  2774 net.cpp:434] conv3_1 -> conv3_1
I0415 20:05:28.624761  2774 net.cpp:156] Setting up conv3_1
I0415 20:05:28.624771  2774 net.cpp:164] Top shape: 1 256 175 175 (7840000)
I0415 20:05:28.624778  2774 layer_factory.hpp:76] Creating layer relu3_1-ft
I0415 20:05:28.624783  2774 net.cpp:111] Creating Layer relu3_1-ft
I0415 20:05:28.624785  2774 net.cpp:478] relu3_1-ft <- conv3_1
I0415 20:05:28.624791  2774 net.cpp:420] relu3_1-ft -> conv3_1 (in-place)
I0415 20:05:28.624799  2774 net.cpp:156] Setting up relu3_1-ft
I0415 20:05:28.624802  2774 net.cpp:164] Top shape: 1 256 175 175 (7840000)
I0415 20:05:28.624804  2774 layer_factory.hpp:76] Creating layer conv3_2
I0415 20:05:28.624809  2774 net.cpp:111] Creating Layer conv3_2
I0415 20:05:28.624811  2774 net.cpp:478] conv3_2 <- conv3_1
I0415 20:05:28.624816  2774 net.cpp:434] conv3_2 -> conv3_2
I0415 20:05:28.626003  2774 net.cpp:156] Setting up conv3_2
I0415 20:05:28.626019  2774 net.cpp:164] Top shape: 1 256 175 175 (7840000)
I0415 20:05:28.626024  2774 layer_factory.hpp:76] Creating layer relu3_2-ft
I0415 20:05:28.626031  2774 net.cpp:111] Creating Layer relu3_2-ft
I0415 20:05:28.626050  2774 net.cpp:478] relu3_2-ft <- conv3_2
I0415 20:05:28.626055  2774 net.cpp:420] relu3_2-ft -> conv3_2 (in-place)
I0415 20:05:28.626060  2774 net.cpp:156] Setting up relu3_2-ft
I0415 20:05:28.626063  2774 net.cpp:164] Top shape: 1 256 175 175 (7840000)
I0415 20:05:28.626068  2774 layer_factory.hpp:76] Creating layer conv3_3
I0415 20:05:28.626075  2774 net.cpp:111] Creating Layer conv3_3
I0415 20:05:28.626080  2774 net.cpp:478] conv3_3 <- conv3_2
I0415 20:05:28.626085  2774 net.cpp:434] conv3_3 -> conv3_3
I0415 20:05:28.627240  2774 net.cpp:156] Setting up conv3_3
I0415 20:05:28.627250  2774 net.cpp:164] Top shape: 1 256 175 175 (7840000)
I0415 20:05:28.627255  2774 layer_factory.hpp:76] Creating layer relu3_3-ft
I0415 20:05:28.627262  2774 net.cpp:111] Creating Layer relu3_3-ft
I0415 20:05:28.627265  2774 net.cpp:478] relu3_3-ft <- conv3_3
I0415 20:05:28.627269  2774 net.cpp:420] relu3_3-ft -> conv3_3 (in-place)
I0415 20:05:28.627274  2774 net.cpp:156] Setting up relu3_3-ft
I0415 20:05:28.627277  2774 net.cpp:164] Top shape: 1 256 175 175 (7840000)
I0415 20:05:28.627279  2774 layer_factory.hpp:76] Creating layer pool3-ft
I0415 20:05:28.627295  2774 net.cpp:111] Creating Layer pool3-ft
I0415 20:05:28.627300  2774 net.cpp:478] pool3-ft <- conv3_3
I0415 20:05:28.627303  2774 net.cpp:434] pool3-ft -> pool3-ft
I0415 20:05:28.627310  2774 net.cpp:156] Setting up pool3-ft
I0415 20:05:28.627315  2774 net.cpp:164] Top shape: 1 256 88 88 (1982464)
I0415 20:05:28.627316  2774 layer_factory.hpp:76] Creating layer pool3-ft_pool3-ft_0_split
I0415 20:05:28.627324  2774 net.cpp:111] Creating Layer pool3-ft_pool3-ft_0_split
I0415 20:05:28.627328  2774 net.cpp:478] pool3-ft_pool3-ft_0_split <- pool3-ft
I0415 20:05:28.627332  2774 net.cpp:434] pool3-ft_pool3-ft_0_split -> pool3-ft_pool3-ft_0_split_0
I0415 20:05:28.627337  2774 net.cpp:434] pool3-ft_pool3-ft_0_split -> pool3-ft_pool3-ft_0_split_1
I0415 20:05:28.627357  2774 net.cpp:156] Setting up pool3-ft_pool3-ft_0_split
I0415 20:05:28.627363  2774 net.cpp:164] Top shape: 1 256 88 88 (1982464)
I0415 20:05:28.627367  2774 net.cpp:164] Top shape: 1 256 88 88 (1982464)
I0415 20:05:28.627369  2774 layer_factory.hpp:76] Creating layer conv4_1
I0415 20:05:28.627375  2774 net.cpp:111] Creating Layer conv4_1
I0415 20:05:28.627383  2774 net.cpp:478] conv4_1 <- pool3-ft_pool3-ft_0_split_0
I0415 20:05:28.627390  2774 net.cpp:434] conv4_1 -> conv4_1
I0415 20:05:28.629616  2774 net.cpp:156] Setting up conv4_1
I0415 20:05:28.629632  2774 net.cpp:164] Top shape: 1 512 88 88 (3964928)
I0415 20:05:28.629638  2774 layer_factory.hpp:76] Creating layer relu4_1-ft
I0415 20:05:28.629647  2774 net.cpp:111] Creating Layer relu4_1-ft
I0415 20:05:28.629649  2774 net.cpp:478] relu4_1-ft <- conv4_1
I0415 20:05:28.629670  2774 net.cpp:420] relu4_1-ft -> conv4_1 (in-place)
I0415 20:05:28.629676  2774 net.cpp:156] Setting up relu4_1-ft
I0415 20:05:28.629680  2774 net.cpp:164] Top shape: 1 512 88 88 (3964928)
I0415 20:05:28.629683  2774 layer_factory.hpp:76] Creating layer conv4_2
I0415 20:05:28.629689  2774 net.cpp:111] Creating Layer conv4_2
I0415 20:05:28.629694  2774 net.cpp:478] conv4_2 <- conv4_1
I0415 20:05:28.629704  2774 net.cpp:434] conv4_2 -> conv4_2
I0415 20:05:28.634080  2774 net.cpp:156] Setting up conv4_2
I0415 20:05:28.634093  2774 net.cpp:164] Top shape: 1 512 88 88 (3964928)
I0415 20:05:28.634104  2774 layer_factory.hpp:76] Creating layer relu4_2-ft
I0415 20:05:28.634109  2774 net.cpp:111] Creating Layer relu4_2-ft
I0415 20:05:28.634112  2774 net.cpp:478] relu4_2-ft <- conv4_2
I0415 20:05:28.634116  2774 net.cpp:420] relu4_2-ft -> conv4_2 (in-place)
I0415 20:05:28.634121  2774 net.cpp:156] Setting up relu4_2-ft
I0415 20:05:28.634125  2774 net.cpp:164] Top shape: 1 512 88 88 (3964928)
I0415 20:05:28.634127  2774 layer_factory.hpp:76] Creating layer conv4_3
I0415 20:05:28.634131  2774 net.cpp:111] Creating Layer conv4_3
I0415 20:05:28.634133  2774 net.cpp:478] conv4_3 <- conv4_2
I0415 20:05:28.634140  2774 net.cpp:434] conv4_3 -> conv4_3
I0415 20:05:28.638617  2774 net.cpp:156] Setting up conv4_3
I0415 20:05:28.638636  2774 net.cpp:164] Top shape: 1 512 88 88 (3964928)
I0415 20:05:28.638643  2774 layer_factory.hpp:76] Creating layer relu4_3-ft
I0415 20:05:28.638648  2774 net.cpp:111] Creating Layer relu4_3-ft
I0415 20:05:28.638650  2774 net.cpp:478] relu4_3-ft <- conv4_3
I0415 20:05:28.638654  2774 net.cpp:420] relu4_3-ft -> conv4_3 (in-place)
I0415 20:05:28.638660  2774 net.cpp:156] Setting up relu4_3-ft
I0415 20:05:28.638664  2774 net.cpp:164] Top shape: 1 512 88 88 (3964928)
I0415 20:05:28.638666  2774 layer_factory.hpp:76] Creating layer pool4-ft
I0415 20:05:28.638672  2774 net.cpp:111] Creating Layer pool4-ft
I0415 20:05:28.638675  2774 net.cpp:478] pool4-ft <- conv4_3
I0415 20:05:28.638679  2774 net.cpp:434] pool4-ft -> pool4-ft
I0415 20:05:28.638711  2774 net.cpp:156] Setting up pool4-ft
I0415 20:05:28.638717  2774 net.cpp:164] Top shape: 1 512 44 44 (991232)
I0415 20:05:28.638720  2774 layer_factory.hpp:76] Creating layer pool4-ft_pool4-ft_0_split
I0415 20:05:28.638725  2774 net.cpp:111] Creating Layer pool4-ft_pool4-ft_0_split
I0415 20:05:28.638727  2774 net.cpp:478] pool4-ft_pool4-ft_0_split <- pool4-ft
I0415 20:05:28.638731  2774 net.cpp:434] pool4-ft_pool4-ft_0_split -> pool4-ft_pool4-ft_0_split_0
I0415 20:05:28.638736  2774 net.cpp:434] pool4-ft_pool4-ft_0_split -> pool4-ft_pool4-ft_0_split_1
I0415 20:05:28.638743  2774 net.cpp:156] Setting up pool4-ft_pool4-ft_0_split
I0415 20:05:28.638746  2774 net.cpp:164] Top shape: 1 512 44 44 (991232)
I0415 20:05:28.638751  2774 net.cpp:164] Top shape: 1 512 44 44 (991232)
I0415 20:05:28.638752  2774 layer_factory.hpp:76] Creating layer conv5_1
I0415 20:05:28.638758  2774 net.cpp:111] Creating Layer conv5_1
I0415 20:05:28.638761  2774 net.cpp:478] conv5_1 <- pool4-ft_pool4-ft_0_split_0
I0415 20:05:28.638767  2774 net.cpp:434] conv5_1 -> conv5_1
I0415 20:05:28.643137  2774 net.cpp:156] Setting up conv5_1
I0415 20:05:28.643153  2774 net.cpp:164] Top shape: 1 512 44 44 (991232)
I0415 20:05:28.643158  2774 layer_factory.hpp:76] Creating layer relu5_1-ft
I0415 20:05:28.643163  2774 net.cpp:111] Creating Layer relu5_1-ft
I0415 20:05:28.643167  2774 net.cpp:478] relu5_1-ft <- conv5_1
I0415 20:05:28.643172  2774 net.cpp:420] relu5_1-ft -> conv5_1 (in-place)
I0415 20:05:28.643178  2774 net.cpp:156] Setting up relu5_1-ft
I0415 20:05:28.643195  2774 net.cpp:164] Top shape: 1 512 44 44 (991232)
I0415 20:05:28.643198  2774 layer_factory.hpp:76] Creating layer conv5_2
I0415 20:05:28.643203  2774 net.cpp:111] Creating Layer conv5_2
I0415 20:05:28.643206  2774 net.cpp:478] conv5_2 <- conv5_1
I0415 20:05:28.643213  2774 net.cpp:434] conv5_2 -> conv5_2
I0415 20:05:28.647585  2774 net.cpp:156] Setting up conv5_2
I0415 20:05:28.647599  2774 net.cpp:164] Top shape: 1 512 44 44 (991232)
I0415 20:05:28.647605  2774 layer_factory.hpp:76] Creating layer relu5_2-ft
I0415 20:05:28.647609  2774 net.cpp:111] Creating Layer relu5_2-ft
I0415 20:05:28.647613  2774 net.cpp:478] relu5_2-ft <- conv5_2
I0415 20:05:28.647619  2774 net.cpp:420] relu5_2-ft -> conv5_2 (in-place)
I0415 20:05:28.647624  2774 net.cpp:156] Setting up relu5_2-ft
I0415 20:05:28.647627  2774 net.cpp:164] Top shape: 1 512 44 44 (991232)
I0415 20:05:28.647634  2774 layer_factory.hpp:76] Creating layer conv5_3
I0415 20:05:28.647639  2774 net.cpp:111] Creating Layer conv5_3
I0415 20:05:28.647651  2774 net.cpp:478] conv5_3 <- conv5_2
I0415 20:05:28.647655  2774 net.cpp:434] conv5_3 -> conv5_3
I0415 20:05:28.652165  2774 net.cpp:156] Setting up conv5_3
I0415 20:05:28.652179  2774 net.cpp:164] Top shape: 1 512 44 44 (991232)
I0415 20:05:28.652184  2774 layer_factory.hpp:76] Creating layer relu5_3-ft
I0415 20:05:28.652195  2774 net.cpp:111] Creating Layer relu5_3-ft
I0415 20:05:28.652199  2774 net.cpp:478] relu5_3-ft <- conv5_3
I0415 20:05:28.652204  2774 net.cpp:420] relu5_3-ft -> conv5_3 (in-place)
I0415 20:05:28.652207  2774 net.cpp:156] Setting up relu5_3-ft
I0415 20:05:28.652211  2774 net.cpp:164] Top shape: 1 512 44 44 (991232)
I0415 20:05:28.652215  2774 layer_factory.hpp:76] Creating layer pool5-ft
I0415 20:05:28.652220  2774 net.cpp:111] Creating Layer pool5-ft
I0415 20:05:28.652221  2774 net.cpp:478] pool5-ft <- conv5_3
I0415 20:05:28.652225  2774 net.cpp:434] pool5-ft -> pool5-ft
I0415 20:05:28.652251  2774 net.cpp:156] Setting up pool5-ft
I0415 20:05:28.652256  2774 net.cpp:164] Top shape: 1 512 22 22 (247808)
I0415 20:05:28.652258  2774 layer_factory.hpp:76] Creating layer fc6
I0415 20:05:28.652263  2774 net.cpp:111] Creating Layer fc6
I0415 20:05:28.652266  2774 net.cpp:478] fc6 <- pool5-ft
I0415 20:05:28.652269  2774 net.cpp:434] fc6 -> fc6
I0415 20:05:28.843483  2774 net.cpp:156] Setting up fc6
I0415 20:05:28.843531  2774 net.cpp:164] Top shape: 1 4096 16 16 (1048576)
I0415 20:05:28.843542  2774 layer_factory.hpp:76] Creating layer relu6-ft
I0415 20:05:28.843552  2774 net.cpp:111] Creating Layer relu6-ft
I0415 20:05:28.843557  2774 net.cpp:478] relu6-ft <- fc6
I0415 20:05:28.843564  2774 net.cpp:420] relu6-ft -> fc6 (in-place)
I0415 20:05:28.843575  2774 net.cpp:156] Setting up relu6-ft
I0415 20:05:28.843577  2774 net.cpp:164] Top shape: 1 4096 16 16 (1048576)
I0415 20:05:28.843580  2774 layer_factory.hpp:76] Creating layer drop6-ft
I0415 20:05:28.843587  2774 net.cpp:111] Creating Layer drop6-ft
I0415 20:05:28.843590  2774 net.cpp:478] drop6-ft <- fc6
I0415 20:05:28.843593  2774 net.cpp:420] drop6-ft -> fc6 (in-place)
I0415 20:05:28.843600  2774 net.cpp:156] Setting up drop6-ft
I0415 20:05:28.843603  2774 net.cpp:164] Top shape: 1 4096 16 16 (1048576)
I0415 20:05:28.843605  2774 layer_factory.hpp:76] Creating layer fc7
I0415 20:05:28.843612  2774 net.cpp:111] Creating Layer fc7
I0415 20:05:28.843614  2774 net.cpp:478] fc7 <- fc6
I0415 20:05:28.843621  2774 net.cpp:434] fc7 -> fc7
I0415 20:05:28.873945  2774 net.cpp:156] Setting up fc7
I0415 20:05:28.873986  2774 net.cpp:164] Top shape: 1 4096 16 16 (1048576)
I0415 20:05:28.873999  2774 layer_factory.hpp:76] Creating layer relu7-ft
I0415 20:05:28.874008  2774 net.cpp:111] Creating Layer relu7-ft
I0415 20:05:28.874012  2774 net.cpp:478] relu7-ft <- fc7
I0415 20:05:28.874022  2774 net.cpp:420] relu7-ft -> fc7 (in-place)
I0415 20:05:28.874032  2774 net.cpp:156] Setting up relu7-ft
I0415 20:05:28.874034  2774 net.cpp:164] Top shape: 1 4096 16 16 (1048576)
I0415 20:05:28.874037  2774 layer_factory.hpp:76] Creating layer drop7-ft
I0415 20:05:28.874043  2774 net.cpp:111] Creating Layer drop7-ft
I0415 20:05:28.874045  2774 net.cpp:478] drop7-ft <- fc7
I0415 20:05:28.874049  2774 net.cpp:420] drop7-ft -> fc7 (in-place)
I0415 20:05:28.874055  2774 net.cpp:156] Setting up drop7-ft
I0415 20:05:28.874058  2774 net.cpp:164] Top shape: 1 4096 16 16 (1048576)
I0415 20:05:28.874061  2774 layer_factory.hpp:76] Creating layer score-fr
I0415 20:05:28.874069  2774 net.cpp:111] Creating Layer score-fr
I0415 20:05:28.874074  2774 net.cpp:478] score-fr <- fc7
I0415 20:05:28.874078  2774 net.cpp:434] score-fr -> score
I0415 20:05:28.874253  2774 net.cpp:156] Setting up score-fr
I0415 20:05:28.874263  2774 net.cpp:164] Top shape: 1 21 16 16 (5376)
I0415 20:05:28.874267  2774 layer_factory.hpp:76] Creating layer score2
I0415 20:05:28.874275  2774 net.cpp:111] Creating Layer score2
I0415 20:05:28.874279  2774 net.cpp:478] score2 <- score
I0415 20:05:28.874284  2774 net.cpp:434] score2 -> score2
I0415 20:05:28.874598  2774 net.cpp:156] Setting up score2
I0415 20:05:28.874606  2774 net.cpp:164] Top shape: 1 21 34 34 (24276)
I0415 20:05:28.874621  2774 layer_factory.hpp:76] Creating layer score2_score2_0_split
I0415 20:05:28.874627  2774 net.cpp:111] Creating Layer score2_score2_0_split
I0415 20:05:28.874630  2774 net.cpp:478] score2_score2_0_split <- score2
I0415 20:05:28.874634  2774 net.cpp:434] score2_score2_0_split -> score2_score2_0_split_0
I0415 20:05:28.874639  2774 net.cpp:434] score2_score2_0_split -> score2_score2_0_split_1
I0415 20:05:28.874646  2774 net.cpp:156] Setting up score2_score2_0_split
I0415 20:05:28.874651  2774 net.cpp:164] Top shape: 1 21 34 34 (24276)
I0415 20:05:28.874655  2774 net.cpp:164] Top shape: 1 21 34 34 (24276)
I0415 20:05:28.874657  2774 layer_factory.hpp:76] Creating layer score-pool4
I0415 20:05:28.874662  2774 net.cpp:111] Creating Layer score-pool4
I0415 20:05:28.874665  2774 net.cpp:478] score-pool4 <- pool4-ft_pool4-ft_0_split_1
I0415 20:05:28.874671  2774 net.cpp:434] score-pool4 -> score-pool4
I0415 20:05:28.874714  2774 net.cpp:156] Setting up score-pool4
I0415 20:05:28.874723  2774 net.cpp:164] Top shape: 1 21 44 44 (40656)
I0415 20:05:28.874727  2774 layer_factory.hpp:76] Creating layer crop-ft
I0415 20:05:28.874732  2774 net.cpp:111] Creating Layer crop-ft
I0415 20:05:28.874735  2774 net.cpp:478] crop-ft <- score-pool4
I0415 20:05:28.874738  2774 net.cpp:478] crop-ft <- score2_score2_0_split_0
I0415 20:05:28.874745  2774 net.cpp:434] crop-ft -> score-pool4c
I0415 20:05:28.874788  2774 net.cpp:156] Setting up crop-ft
I0415 20:05:28.874795  2774 net.cpp:164] Top shape: 1 21 34 34 (24276)
I0415 20:05:28.874799  2774 layer_factory.hpp:76] Creating layer fuse-ft
I0415 20:05:28.874804  2774 net.cpp:111] Creating Layer fuse-ft
I0415 20:05:28.874806  2774 net.cpp:478] fuse-ft <- score2_score2_0_split_1
I0415 20:05:28.874809  2774 net.cpp:478] fuse-ft <- score-pool4c
I0415 20:05:28.874814  2774 net.cpp:434] fuse-ft -> score-fused
I0415 20:05:28.874820  2774 net.cpp:156] Setting up fuse-ft
I0415 20:05:28.874824  2774 net.cpp:164] Top shape: 1 21 34 34 (24276)
I0415 20:05:28.874826  2774 layer_factory.hpp:76] Creating layer score4
I0415 20:05:28.874830  2774 net.cpp:111] Creating Layer score4
I0415 20:05:28.874835  2774 net.cpp:478] score4 <- score-fused
I0415 20:05:28.874842  2774 net.cpp:434] score4 -> score4
I0415 20:05:28.874866  2774 net.cpp:156] Setting up score4
I0415 20:05:28.874873  2774 net.cpp:164] Top shape: 1 21 70 70 (102900)
I0415 20:05:28.874876  2774 layer_factory.hpp:76] Creating layer score4_score4_0_split
I0415 20:05:28.874882  2774 net.cpp:111] Creating Layer score4_score4_0_split
I0415 20:05:28.874888  2774 net.cpp:478] score4_score4_0_split <- score4
I0415 20:05:28.874892  2774 net.cpp:434] score4_score4_0_split -> score4_score4_0_split_0
I0415 20:05:28.874897  2774 net.cpp:434] score4_score4_0_split -> score4_score4_0_split_1
I0415 20:05:28.874904  2774 net.cpp:156] Setting up score4_score4_0_split
I0415 20:05:28.874908  2774 net.cpp:164] Top shape: 1 21 70 70 (102900)
I0415 20:05:28.874912  2774 net.cpp:164] Top shape: 1 21 70 70 (102900)
I0415 20:05:28.874914  2774 layer_factory.hpp:76] Creating layer score-pool3
I0415 20:05:28.874918  2774 net.cpp:111] Creating Layer score-pool3
I0415 20:05:28.874924  2774 net.cpp:478] score-pool3 <- pool3-ft_pool3-ft_0_split_1
I0415 20:05:28.874930  2774 net.cpp:434] score-pool3 -> score-pool3
I0415 20:05:28.874967  2774 net.cpp:156] Setting up score-pool3
I0415 20:05:28.874984  2774 net.cpp:164] Top shape: 1 21 88 88 (162624)
I0415 20:05:28.874989  2774 layer_factory.hpp:76] Creating layer crop-ft
I0415 20:05:28.874995  2774 net.cpp:111] Creating Layer crop-ft
I0415 20:05:28.874999  2774 net.cpp:478] crop-ft <- score-pool3
I0415 20:05:28.875001  2774 net.cpp:478] crop-ft <- score4_score4_0_split_0
I0415 20:05:28.875005  2774 net.cpp:434] crop-ft -> score-pool3c
I0415 20:05:28.875038  2774 net.cpp:156] Setting up crop-ft
I0415 20:05:28.875046  2774 net.cpp:164] Top shape: 1 21 70 70 (102900)
I0415 20:05:28.875048  2774 layer_factory.hpp:76] Creating layer fuse-ft
I0415 20:05:28.875053  2774 net.cpp:111] Creating Layer fuse-ft
I0415 20:05:28.875058  2774 net.cpp:478] fuse-ft <- score4_score4_0_split_1
I0415 20:05:28.875061  2774 net.cpp:478] fuse-ft <- score-pool3c
I0415 20:05:28.875066  2774 net.cpp:434] fuse-ft -> score-final
I0415 20:05:28.875071  2774 net.cpp:156] Setting up fuse-ft
I0415 20:05:28.875077  2774 net.cpp:164] Top shape: 1 21 70 70 (102900)
I0415 20:05:28.875079  2774 layer_factory.hpp:76] Creating layer upsample-ft
I0415 20:05:28.875085  2774 net.cpp:111] Creating Layer upsample-ft
I0415 20:05:28.875090  2774 net.cpp:478] upsample-ft <- score-final
I0415 20:05:28.875095  2774 net.cpp:434] upsample-ft -> bigscore
I0415 20:05:28.875324  2774 net.cpp:156] Setting up upsample-ft
I0415 20:05:28.875335  2774 net.cpp:164] Top shape: 1 21 568 568 (6775104)
I0415 20:05:28.875339  2774 layer_factory.hpp:76] Creating layer crop-ft
I0415 20:05:28.875345  2774 net.cpp:111] Creating Layer crop-ft
I0415 20:05:28.875349  2774 net.cpp:478] crop-ft <- bigscore
I0415 20:05:28.875351  2774 net.cpp:478] crop-ft <- data-ft_input_0_split_1
I0415 20:05:28.875355  2774 net.cpp:434] crop-ft -> coarse-ft
I0415 20:05:28.875401  2774 net.cpp:156] Setting up crop-ft
I0415 20:05:28.875407  2774 net.cpp:164] Top shape: 1 21 500 500 (5250000)
I0415 20:05:28.875411  2774 layer_factory.hpp:76] Creating layer splitting-ft
I0415 20:05:28.875414  2774 net.cpp:111] Creating Layer splitting-ft
I0415 20:05:28.875417  2774 net.cpp:478] splitting-ft <- coarse-ft
I0415 20:05:28.875422  2774 net.cpp:434] splitting-ft -> unary-ft
I0415 20:05:28.875428  2774 net.cpp:434] splitting-ft -> Q0-ft
I0415 20:05:28.875433  2774 net.cpp:156] Setting up splitting-ft
I0415 20:05:28.875437  2774 net.cpp:164] Top shape: 1 21 500 500 (5250000)
I0415 20:05:28.875440  2774 net.cpp:164] Top shape: 1 21 500 500 (5250000)
I0415 20:05:28.875442  2774 layer_factory.hpp:76] Creating layer inference1-ft
I0415 20:05:28.875449  2774 net.cpp:111] Creating Layer inference1-ft
I0415 20:05:28.875452  2774 net.cpp:478] inference1-ft <- unary-ft
I0415 20:05:28.875454  2774 net.cpp:478] inference1-ft <- Q0-ft
I0415 20:05:28.875458  2774 net.cpp:478] inference1-ft <- data-ft_input_0_split_2
I0415 20:05:28.875463  2774 net.cpp:434] inference1-ft -> pred-ft
I0415 20:05:28.875470  2774 multi_stage_meanfield.cpp:53] This implementation has not been tested batch size > 1.
I0415 20:05:28.875519  2774 multi_stage_meanfield.cpp:98] Initializing custom matrix
I0415 20:05:28.923785  2774 multi_stage_meanfield.cpp:661] MultiStageMeanfieldLayer initialized.
I0415 20:05:28.923822  2774 net.cpp:156] Setting up inference1-ft
I0415 20:05:28.923831  2774 net.cpp:164] Top shape: 1 21 500 500 (5250000)
I0415 20:05:28.923842  2774 net.cpp:241] inference1-ft does not need backward computation.
I0415 20:05:28.923848  2774 net.cpp:241] splitting-ft does not need backward computation.
I0415 20:05:28.923851  2774 net.cpp:241] crop-ft does not need backward computation.
I0415 20:05:28.923856  2774 net.cpp:241] upsample-ft does not need backward computation.
I0415 20:05:28.923858  2774 net.cpp:241] fuse-ft does not need backward computation.
…
