WARNING: Logging before InitGoogleLogging() is written to STDERR
I0402 00:13:18.505321  2590 net.cpp:50] Initializing net from parameters: 
name: "CRFRNN-VOC"
input: "data"
input_dim: 1
input_dim: 3
input_dim: 500
input_dim: 500
force_backward: true
state {
  phase: TEST
}
layer {
  name: "conv1_1"
  type: "Convolution"
  bottom: "data"
  top: "conv1_1"
  param {
    lr_mult: 1
    decay_mult: 1
  }
  param {
    lr_mult: 2
    decay_mult: 0
  }
  convolution_param {
    num_output: 64
    pad: 100
    kernel_size: 3
    engine: CAFFE
  }
}
layer {
  name: "relu1_1"
  type: "ReLU"
  bottom: "conv1_1"
  top: "conv1_1"
}
layer {
  name: "conv1_2"
  type: "Convolution"
  bottom: "conv1_1"
  top: "conv1_2"
  param {
    lr_mult: 1
    decay_mult: 1
  }
  param {
    lr_mult: 2
    decay_mult: 0
  }
  convolution_param {
    num_output: 64
    pad: 1
    kernel_size: 3
    engine: CAFFE
  }
}
layer {
  name: "relu1_2"
  type: "ReLU"
  bottom: "conv1_2"
  top: "conv1_2"
}
layer {
  name: "pool1"
  type: "Pooling"
  bottom: "conv1_2"
  top: "pool1"
  pooling_param {
    pool: MAX
    kernel_size: 2
    stride: 2
  }
}
layer {
  name: "conv2_1"
  type: "Convolution"
  bottom: "pool1"
  top: "conv2_1"
  param {
    lr_mult: 1
    decay_mult: 1
  }
  param {
    lr_mult: 2
    decay_mult: 0
  }
  convolution_param {
    num_output: 128
    pad: 1
    kernel_size: 3
    engine: CAFFE
  }
}
layer {
  name: "relu2_1"
  type: "ReLU"
  bottom: "conv2_1"
  top: "conv2_1"
}
layer {
  name: "conv2_2"
  type: "Convolution"
  bottom: "conv2_1"
  top: "conv2_2"
  param {
    lr_mult: 1
    decay_mult: 1
  }
  param {
    lr_mult: 2
    decay_mult: 0
  }
  convolution_param {
    num_output: 128
    pad: 1
    kernel_size: 3
    engine: CAFFE
  }
}
layer {
  name: "relu2_2"
  type: "ReLU"
  bottom: "conv2_2"
  top: "conv2_2"
}
layer {
  name: "pool2"
  type: "Pooling"
  bottom: "conv2_2"
  top: "pool2"
  pooling_param {
    pool: MAX
    kernel_size: 2
    stride: 2
  }
}
layer {
  name: "conv3_1"
  type: "Convolution"
  bottom: "pool2"
  top: "conv3_1"
  param {
    lr_mult: 1
    decay_mult: 1
  }
  param {
    lr_mult: 2
    decay_mult: 0
  }
  convolution_param {
    num_output: 256
    pad: 1
    kernel_size: 3
    engine: CAFFE
  }
}
layer {
  name: "relu3_1"
  type: "ReLU"
  bottom: "conv3_1"
  top: "conv3_1"
}
layer {
  name: "conv3_2"
  type: "Convolution"
  bottom: "conv3_1"
  top: "conv3_2"
  param {
    lr_mult: 1
    decay_mult: 1
  }
  param {
    lr_mult: 2
    decay_mult: 0
  }
  convolution_param {
    num_output: 256
    pad: 1
    kernel_size: 3
    engine: CAFFE
  }
}
layer {
  name: "relu3_2"
  type: "ReLU"
  bottom: "conv3_2"
  top: "conv3_2"
}
layer {
  name: "conv3_3"
  type: "Convolution"
  bottom: "conv3_2"
  top: "conv3_3"
  param {
    lr_mult: 1
    decay_mult: 1
  }
  param {
    lr_mult: 2
    decay_mult: 0
  }
  convolution_param {
    num_output: 256
    pad: 1
    kernel_size: 3
    engine: CAFFE
  }
}
layer {
  name: "relu3_3"
  type: "ReLU"
  bottom: "conv3_3"
  top: "conv3_3"
}
layer {
  name: "pool3"
  type: "Pooling"
  bottom: "conv3_3"
  top: "pool3"
  pooling_param {
    pool: MAX
    kernel_size: 2
    stride: 2
  }
}
layer {
  name: "conv4_1"
  type: "Convolution"
  bottom: "pool3"
  top: "conv4_1"
  param {
    lr_mult: 1
    decay_mult: 1
  }
  param {
    lr_mult: 2
    decay_mult: 0
  }
  convolution_param {
    num_output: 512
    pad: 1
    kernel_size: 3
    engine: CAFFE
  }
}
layer {
  name: "relu4_1"
  type: "ReLU"
  bottom: "conv4_1"
  top: "conv4_1"
}
layer {
  name: "conv4_2"
  type: "Convolution"
  bottom: "conv4_1"
  top: "conv4_2"
  param {
    lr_mult: 1
    decay_mult: 1
  }
  param {
    lr_mult: 2
    decay_mult: 0
  }
  convolution_param {
    num_output: 512
    pad: 1
    kernel_size: 3
    engine: CAFFE
  }
}
layer {
  name: "relu4_2"
  type: "ReLU"
  bottom: "conv4_2"
  top: "conv4_2"
}
layer {
  name: "conv4_3"
  type: "Convolution"
  bottom: "conv4_2"
  top: "conv4_3"
  param {
    lr_mult: 1
    decay_mult: 1
  }
  param {
    lr_mult: 2
    decay_mult: 0
  }
  convolution_param {
    num_output: 512
    pad: 1
    kernel_size: 3
    engine: CAFFE
  }
}
layer {
  name: "relu4_3"
  type: "ReLU"
  bottom: "conv4_3"
  top: "conv4_3"
}
layer {
  name: "pool4"
  type: "Pooling"
  bottom: "conv4_3"
  top: "pool4"
  pooling_param {
    pool: MAX
    kernel_size: 2
    stride: 2
  }
}
layer {
  name: "conv5_1"
  type: "Convolution"
  bottom: "pool4"
  top: "conv5_1"
  param {
    lr_mult: 1
    decay_mult: 1
  }
  param {
    lr_mult: 2
    decay_mult: 0
  }
  convolution_param {
    num_output: 512
    pad: 1
    kernel_size: 3
    engine: CAFFE
  }
}
layer {
  name: "relu5_1"
  type: "ReLU"
  bottom: "conv5_1"
  top: "conv5_1"
}
layer {
  name: "conv5_2"
  type: "Convolution"
  bottom: "conv5_1"
  top: "conv5_2"
  param {
    lr_mult: 1
    decay_mult: 1
  }
  param {
    lr_mult: 2
    decay_mult: 0
  }
  convolution_param {
    num_output: 512
    pad: 1
    kernel_size: 3
    engine: CAFFE
  }
}
layer {
  name: "relu5_2"
  type: "ReLU"
  bottom: "conv5_2"
  top: "conv5_2"
}
layer {
  name: "conv5_3"
  type: "Convolution"
  bottom: "conv5_2"
  top: "conv5_3"
  param {
    lr_mult: 1
    decay_mult: 1
  }
  param {
    lr_mult: 2
    decay_mult: 0
  }
  convolution_param {
    num_output: 512
    pad: 1
    kernel_size: 3
    engine: CAFFE
  }
}
layer {
  name: "relu5_3"
  type: "ReLU"
  bottom: "conv5_3"
  top: "conv5_3"
}
layer {
  name: "pool5"
  type: "Pooling"
  bottom: "conv5_3"
  top: "pool5"
  pooling_param {
    pool: MAX
    kernel_size: 2
    stride: 2
  }
}
layer {
  name: "fc6"
  type: "Convolution"
  bottom: "pool5"
  top: "fc6"
  param {
    lr_mult: 1
    decay_mult: 1
  }
  param {
    lr_mult: 2
    decay_mult: 0
  }
  convolution_param {
    num_output: 4096
    kernel_size: 7
    engine: CAFFE
  }
}
layer {
  name: "relu6"
  type: "ReLU"
  bottom: "fc6"
  top: "fc6"
}
layer {
  name: "drop6"
  type: "Dropout"
  bottom: "fc6"
  top: "fc6"
  dropout_param {
    dropout_ratio: 0.5
  }
}
layer {
  name: "fc7"
  type: "Convolution"
  bottom: "fc6"
  top: "fc7"
  param {
    lr_mult: 1
    decay_mult: 1
  }
  param {
    lr_mult: 2
    decay_mult: 0
  }
  convolution_param {
    num_output: 4096
    kernel_size: 1
    engine: CAFFE
  }
}
layer {
  name: "relu7"
  type: "ReLU"
  bottom: "fc7"
  top: "fc7"
}
layer {
  name: "drop7"
  type: "Dropout"
  bottom: "fc7"
  top: "fc7"
  dropout_param {
    dropout_ratio: 0.5
  }
}
layer {
  name: "score-fr"
  type: "Convolution"
  bottom: "fc7"
  top: "score"
  param {
    lr_mult: 1
    decay_mult: 1
  }
  param {
    lr_mult: 2
    decay_mult: 0
  }
  convolution_param {
    num_output: 21
    kernel_size: 1
    engine: CAFFE
  }
}
layer {
  name: "score2"
  type: "Deconvolution"
  bottom: "score"
  top: "score2"
  param {
    lr_mult: 1
  }
  convolution_param {
    num_output: 21
    kernel_size: 4
    stride: 2
    weight_filler {
      type: "bilinear"
    }
  }
}
layer {
  name: "score-pool4"
  type: "Convolution"
  bottom: "pool4"
  top: "score-pool4"
  param {
    lr_mult: 1
    decay_mult: 1
  }
  param {
    lr_mult: 2
    decay_mult: 0
  }
  convolution_param {
    num_output: 21
    kernel_size: 1
    engine: CAFFE
  }
}
layer {
  name: "crop"
  type: "Crop"
  bottom: "score-pool4"
  bottom: "score2"
  top: "score-pool4c"
}
layer {
  name: "fuse"
  type: "Eltwise"
  bottom: "score2"
  bottom: "score-pool4c"
  top: "score-fused"
  eltwise_param {
    operation: SUM
  }
}
layer {
  name: "score4"
  type: "Deconvolution"
  bottom: "score-fused"
  top: "score4"
  param {
    lr_mult: 1
    decay_mult: 1
  }
  convolution_param {
    num_output: 21
    bias_term: false
    kernel_size: 4
    stride: 2
  }
}
layer {
  name: "score-pool3"
  type: "Convolution"
  bottom: "pool3"
  top: "score-pool3"
  param {
    lr_mult: 1
    decay_mult: 1
  }
  param {
    lr_mult: 2
    decay_mult: 0
  }
  convolution_param {
    num_output: 21
    kernel_size: 1
    engine: CAFFE
  }
}
layer {
  name: "crop"
  type: "Crop"
  bottom: "score-pool3"
  bottom: "score4"
  top: "score-pool3c"
}
layer {
  name: "fuse"
  type: "Eltwise"
  bottom: "score4"
  bottom: "score-pool3c"
  top: "score-final"
  eltwise_param {
    operation: SUM
  }
}
layer {
  name: "upsample"
  type: "Deconvolution"
  bottom: "score-final"
  top: "bigscore"
  param {
    lr_mult: 0
  }
  convolution_param {
    num_output: 21
    bias_term: false
    kernel_size: 16
    stride: 8
  }
}
layer {
  name: "crop"
  type: "Crop"
  bottom: "bigscore"
  bottom: "data"
  top: "coarse"
}
layer {
  name: "splitting"
  type: "Split"
  bottom: "coarse"
  top: "unary"
  top: "Q0"
}
layer {
  name: "inference1"
  type: "MultiStageMeanfield"
  bottom: "unary"
  bottom: "Q0"
  bottom: "data"
  top: "pred"
  param {
    lr_mult: 10000
  }
  param {
    lr_mult: 10000
  }
  param {
    lr_mult: 1000
  }
  multi_stage_meanfield_param {
    compatibility_mode: POTTS
    threshold: 2
    theta_alpha: 160
    theta_beta: 3
    theta_gamma: 3
    num_iterations: 10
    spatial_filter_weight: 3
    bilateral_filter_weight: 5
  }
}
I0402 00:13:18.510319  2590 net.cpp:436] Input 0 -> data
I0402 00:13:18.511077  2590 layer_factory.hpp:76] Creating layer data_input_0_split
I0402 00:13:18.511165  2590 net.cpp:111] Creating Layer data_input_0_split
I0402 00:13:18.511188  2590 net.cpp:478] data_input_0_split <- data
I0402 00:13:18.511214  2590 net.cpp:434] data_input_0_split -> data_input_0_split_0
I0402 00:13:18.511242  2590 net.cpp:434] data_input_0_split -> data_input_0_split_1
I0402 00:13:18.511266  2590 net.cpp:434] data_input_0_split -> data_input_0_split_2
I0402 00:13:18.511293  2590 net.cpp:156] Setting up data_input_0_split
I0402 00:13:18.511322  2590 net.cpp:164] Top shape: 1 3 500 500 (750000)
I0402 00:13:18.511342  2590 net.cpp:164] Top shape: 1 3 500 500 (750000)
I0402 00:13:18.511358  2590 net.cpp:164] Top shape: 1 3 500 500 (750000)
I0402 00:13:18.511376  2590 layer_factory.hpp:76] Creating layer conv1_1
I0402 00:13:18.511401  2590 net.cpp:111] Creating Layer conv1_1
I0402 00:13:18.511420  2590 net.cpp:478] conv1_1 <- data_input_0_split_0
I0402 00:13:18.511440  2590 net.cpp:434] conv1_1 -> conv1_1
I0402 00:13:18.512466  2590 net.cpp:156] Setting up conv1_1
I0402 00:13:18.512506  2590 net.cpp:164] Top shape: 1 64 698 698 (31181056)
I0402 00:13:18.512534  2590 layer_factory.hpp:76] Creating layer relu1_1
I0402 00:13:18.512557  2590 net.cpp:111] Creating Layer relu1_1
I0402 00:13:18.512575  2590 net.cpp:478] relu1_1 <- conv1_1
I0402 00:13:18.512598  2590 net.cpp:420] relu1_1 -> conv1_1 (in-place)
I0402 00:13:18.512620  2590 net.cpp:156] Setting up relu1_1
I0402 00:13:18.512639  2590 net.cpp:164] Top shape: 1 64 698 698 (31181056)
I0402 00:13:18.512655  2590 layer_factory.hpp:76] Creating layer conv1_2
I0402 00:13:18.512675  2590 net.cpp:111] Creating Layer conv1_2
I0402 00:13:18.512691  2590 net.cpp:478] conv1_2 <- conv1_1
I0402 00:13:18.512712  2590 net.cpp:434] conv1_2 -> conv1_2
I0402 00:13:18.513792  2590 net.cpp:156] Setting up conv1_2
I0402 00:13:18.513826  2590 net.cpp:164] Top shape: 1 64 698 698 (31181056)
I0402 00:13:18.513851  2590 layer_factory.hpp:76] Creating layer relu1_2
I0402 00:13:18.513876  2590 net.cpp:111] Creating Layer relu1_2
I0402 00:13:18.513895  2590 net.cpp:478] relu1_2 <- conv1_2
I0402 00:13:18.513913  2590 net.cpp:420] relu1_2 -> conv1_2 (in-place)
I0402 00:13:18.513936  2590 net.cpp:156] Setting up relu1_2
I0402 00:13:18.513955  2590 net.cpp:164] Top shape: 1 64 698 698 (31181056)
I0402 00:13:18.513972  2590 layer_factory.hpp:76] Creating layer pool1
I0402 00:13:18.513993  2590 net.cpp:111] Creating Layer pool1
I0402 00:13:18.514008  2590 net.cpp:478] pool1 <- conv1_2
I0402 00:13:18.514056  2590 net.cpp:434] pool1 -> pool1
I0402 00:13:18.514089  2590 net.cpp:156] Setting up pool1
I0402 00:13:18.514109  2590 net.cpp:164] Top shape: 1 64 349 349 (7795264)
I0402 00:13:18.514127  2590 layer_factory.hpp:76] Creating layer conv2_1
I0402 00:13:18.514147  2590 net.cpp:111] Creating Layer conv2_1
I0402 00:13:18.514163  2590 net.cpp:478] conv2_1 <- pool1
I0402 00:13:18.514184  2590 net.cpp:434] conv2_1 -> conv2_1
I0402 00:13:18.514605  2590 net.cpp:156] Setting up conv2_1
I0402 00:13:18.514628  2590 net.cpp:164] Top shape: 1 128 349 349 (15590528)
I0402 00:13:18.514662  2590 layer_factory.hpp:76] Creating layer relu2_1
I0402 00:13:18.514683  2590 net.cpp:111] Creating Layer relu2_1
I0402 00:13:18.514700  2590 net.cpp:478] relu2_1 <- conv2_1
I0402 00:13:18.514727  2590 net.cpp:420] relu2_1 -> conv2_1 (in-place)
I0402 00:13:18.514750  2590 net.cpp:156] Setting up relu2_1
I0402 00:13:18.514767  2590 net.cpp:164] Top shape: 1 128 349 349 (15590528)
I0402 00:13:18.514783  2590 layer_factory.hpp:76] Creating layer conv2_2
I0402 00:13:18.514808  2590 net.cpp:111] Creating Layer conv2_2
I0402 00:13:18.514834  2590 net.cpp:478] conv2_2 <- conv2_1
I0402 00:13:18.514863  2590 net.cpp:434] conv2_2 -> conv2_2
I0402 00:13:18.515559  2590 net.cpp:156] Setting up conv2_2
I0402 00:13:18.515599  2590 net.cpp:164] Top shape: 1 128 349 349 (15590528)
I0402 00:13:18.515624  2590 layer_factory.hpp:76] Creating layer relu2_2
I0402 00:13:18.515647  2590 net.cpp:111] Creating Layer relu2_2
I0402 00:13:18.515666  2590 net.cpp:478] relu2_2 <- conv2_2
I0402 00:13:18.515684  2590 net.cpp:420] relu2_2 -> conv2_2 (in-place)
I0402 00:13:18.515705  2590 net.cpp:156] Setting up relu2_2
I0402 00:13:18.515724  2590 net.cpp:164] Top shape: 1 128 349 349 (15590528)
I0402 00:13:18.515740  2590 layer_factory.hpp:76] Creating layer pool2
I0402 00:13:18.515763  2590 net.cpp:111] Creating Layer pool2
I0402 00:13:18.515779  2590 net.cpp:478] pool2 <- conv2_2
I0402 00:13:18.515799  2590 net.cpp:434] pool2 -> pool2
I0402 00:13:18.515822  2590 net.cpp:156] Setting up pool2
I0402 00:13:18.515841  2590 net.cpp:164] Top shape: 1 128 175 175 (3920000)
I0402 00:13:18.515857  2590 layer_factory.hpp:76] Creating layer conv3_1
I0402 00:13:18.515879  2590 net.cpp:111] Creating Layer conv3_1
I0402 00:13:18.515897  2590 net.cpp:478] conv3_1 <- pool2
I0402 00:13:18.515916  2590 net.cpp:434] conv3_1 -> conv3_1
I0402 00:13:18.516686  2590 net.cpp:156] Setting up conv3_1
I0402 00:13:18.516716  2590 net.cpp:164] Top shape: 1 256 175 175 (7840000)
I0402 00:13:18.516742  2590 layer_factory.hpp:76] Creating layer relu3_1
I0402 00:13:18.516765  2590 net.cpp:111] Creating Layer relu3_1
I0402 00:13:18.516783  2590 net.cpp:478] relu3_1 <- conv3_1
I0402 00:13:18.516803  2590 net.cpp:420] relu3_1 -> conv3_1 (in-place)
I0402 00:13:18.516824  2590 net.cpp:156] Setting up relu3_1
I0402 00:13:18.516844  2590 net.cpp:164] Top shape: 1 256 175 175 (7840000)
I0402 00:13:18.516860  2590 layer_factory.hpp:76] Creating layer conv3_2
I0402 00:13:18.516880  2590 net.cpp:111] Creating Layer conv3_2
I0402 00:13:18.516898  2590 net.cpp:478] conv3_2 <- conv3_1
I0402 00:13:18.516917  2590 net.cpp:434] conv3_2 -> conv3_2
I0402 00:13:18.518298  2590 net.cpp:156] Setting up conv3_2
I0402 00:13:18.518347  2590 net.cpp:164] Top shape: 1 256 175 175 (7840000)
I0402 00:13:18.518371  2590 layer_factory.hpp:76] Creating layer relu3_2
I0402 00:13:18.518393  2590 net.cpp:111] Creating Layer relu3_2
I0402 00:13:18.518412  2590 net.cpp:478] relu3_2 <- conv3_2
I0402 00:13:18.518435  2590 net.cpp:420] relu3_2 -> conv3_2 (in-place)
I0402 00:13:18.518458  2590 net.cpp:156] Setting up relu3_2
I0402 00:13:18.518476  2590 net.cpp:164] Top shape: 1 256 175 175 (7840000)
I0402 00:13:18.518879  2590 layer_factory.hpp:76] Creating layer conv3_3
I0402 00:13:18.518923  2590 net.cpp:111] Creating Layer conv3_3
I0402 00:13:18.518942  2590 net.cpp:478] conv3_3 <- conv3_2
I0402 00:13:18.518976  2590 net.cpp:434] conv3_3 -> conv3_3
I0402 00:13:18.520390  2590 net.cpp:156] Setting up conv3_3
I0402 00:13:18.520457  2590 net.cpp:164] Top shape: 1 256 175 175 (7840000)
I0402 00:13:18.520484  2590 layer_factory.hpp:76] Creating layer relu3_3
I0402 00:13:18.520561  2590 net.cpp:111] Creating Layer relu3_3
I0402 00:13:18.520589  2590 net.cpp:478] relu3_3 <- conv3_3
I0402 00:13:18.520613  2590 net.cpp:420] relu3_3 -> conv3_3 (in-place)
I0402 00:13:18.520647  2590 net.cpp:156] Setting up relu3_3
I0402 00:13:18.520666  2590 net.cpp:164] Top shape: 1 256 175 175 (7840000)
I0402 00:13:18.520684  2590 layer_factory.hpp:76] Creating layer pool3
I0402 00:13:18.520720  2590 net.cpp:111] Creating Layer pool3
I0402 00:13:18.520740  2590 net.cpp:478] pool3 <- conv3_3
I0402 00:13:18.520759  2590 net.cpp:434] pool3 -> pool3
I0402 00:13:18.520790  2590 net.cpp:156] Setting up pool3
I0402 00:13:18.520812  2590 net.cpp:164] Top shape: 1 256 88 88 (1982464)
I0402 00:13:18.520835  2590 layer_factory.hpp:76] Creating layer pool3_pool3_0_split
I0402 00:13:18.520856  2590 net.cpp:111] Creating Layer pool3_pool3_0_split
I0402 00:13:18.520881  2590 net.cpp:478] pool3_pool3_0_split <- pool3
I0402 00:13:18.520901  2590 net.cpp:434] pool3_pool3_0_split -> pool3_pool3_0_split_0
I0402 00:13:18.520932  2590 net.cpp:434] pool3_pool3_0_split -> pool3_pool3_0_split_1
I0402 00:13:18.520957  2590 net.cpp:156] Setting up pool3_pool3_0_split
I0402 00:13:18.520982  2590 net.cpp:164] Top shape: 1 256 88 88 (1982464)
I0402 00:13:18.521029  2590 net.cpp:164] Top shape: 1 256 88 88 (1982464)
I0402 00:13:18.521049  2590 layer_factory.hpp:76] Creating layer conv4_1
I0402 00:13:18.521076  2590 net.cpp:111] Creating Layer conv4_1
I0402 00:13:18.521133  2590 net.cpp:478] conv4_1 <- pool3_pool3_0_split_0
I0402 00:13:18.521159  2590 net.cpp:434] conv4_1 -> conv4_1
I0402 00:13:18.523849  2590 net.cpp:156] Setting up conv4_1
I0402 00:13:18.524010  2590 net.cpp:164] Top shape: 1 512 88 88 (3964928)
I0402 00:13:18.524138  2590 layer_factory.hpp:76] Creating layer relu4_1
I0402 00:13:18.524211  2590 net.cpp:111] Creating Layer relu4_1
I0402 00:13:18.524265  2590 net.cpp:478] relu4_1 <- conv4_1
I0402 00:13:18.524323  2590 net.cpp:420] relu4_1 -> conv4_1 (in-place)
I0402 00:13:18.524370  2590 net.cpp:156] Setting up relu4_1
I0402 00:13:18.524420  2590 net.cpp:164] Top shape: 1 512 88 88 (3964928)
I0402 00:13:18.524453  2590 layer_factory.hpp:76] Creating layer conv4_2
I0402 00:13:18.524492  2590 net.cpp:111] Creating Layer conv4_2
I0402 00:13:18.524570  2590 net.cpp:478] conv4_2 <- conv4_1
I0402 00:13:18.524613  2590 net.cpp:434] conv4_2 -> conv4_2
I0402 00:13:18.532166  2590 net.cpp:156] Setting up conv4_2
I0402 00:13:18.532393  2590 net.cpp:164] Top shape: 1 512 88 88 (3964928)
I0402 00:13:18.532469  2590 layer_factory.hpp:76] Creating layer relu4_2
I0402 00:13:18.532510  2590 net.cpp:111] Creating Layer relu4_2
I0402 00:13:18.532541  2590 net.cpp:478] relu4_2 <- conv4_2
I0402 00:13:18.532572  2590 net.cpp:420] relu4_2 -> conv4_2 (in-place)
I0402 00:13:18.532610  2590 net.cpp:156] Setting up relu4_2
I0402 00:13:18.532641  2590 net.cpp:164] Top shape: 1 512 88 88 (3964928)
I0402 00:13:18.532668  2590 layer_factory.hpp:76] Creating layer conv4_3
I0402 00:13:18.532703  2590 net.cpp:111] Creating Layer conv4_3
I0402 00:13:18.532729  2590 net.cpp:478] conv4_3 <- conv4_2
I0402 00:13:18.532763  2590 net.cpp:434] conv4_3 -> conv4_3
I0402 00:13:18.537629  2590 net.cpp:156] Setting up conv4_3
I0402 00:13:18.537722  2590 net.cpp:164] Top shape: 1 512 88 88 (3964928)
I0402 00:13:18.537768  2590 layer_factory.hpp:76] Creating layer relu4_3
I0402 00:13:18.537811  2590 net.cpp:111] Creating Layer relu4_3
I0402 00:13:18.537843  2590 net.cpp:478] relu4_3 <- conv4_3
I0402 00:13:18.537883  2590 net.cpp:420] relu4_3 -> conv4_3 (in-place)
I0402 00:13:18.537955  2590 net.cpp:156] Setting up relu4_3
I0402 00:13:18.537987  2590 net.cpp:164] Top shape: 1 512 88 88 (3964928)
I0402 00:13:18.538012  2590 layer_factory.hpp:76] Creating layer pool4
I0402 00:13:18.538043  2590 net.cpp:111] Creating Layer pool4
I0402 00:13:18.538072  2590 net.cpp:478] pool4 <- conv4_3
I0402 00:13:18.538108  2590 net.cpp:434] pool4 -> pool4
I0402 00:13:18.538149  2590 net.cpp:156] Setting up pool4
I0402 00:13:18.538182  2590 net.cpp:164] Top shape: 1 512 44 44 (991232)
I0402 00:13:18.538208  2590 layer_factory.hpp:76] Creating layer pool4_pool4_0_split
I0402 00:13:18.538239  2590 net.cpp:111] Creating Layer pool4_pool4_0_split
I0402 00:13:18.538269  2590 net.cpp:478] pool4_pool4_0_split <- pool4
I0402 00:13:18.538303  2590 net.cpp:434] pool4_pool4_0_split -> pool4_pool4_0_split_0
I0402 00:13:18.538339  2590 net.cpp:434] pool4_pool4_0_split -> pool4_pool4_0_split_1
I0402 00:13:18.538390  2590 net.cpp:156] Setting up pool4_pool4_0_split
I0402 00:13:18.538422  2590 net.cpp:164] Top shape: 1 512 44 44 (991232)
I0402 00:13:18.538453  2590 net.cpp:164] Top shape: 1 512 44 44 (991232)
I0402 00:13:18.538480  2590 layer_factory.hpp:76] Creating layer conv5_1
I0402 00:13:18.538518  2590 net.cpp:111] Creating Layer conv5_1
I0402 00:13:18.538547  2590 net.cpp:478] conv5_1 <- pool4_pool4_0_split_0
I0402 00:13:18.538579  2590 net.cpp:434] conv5_1 -> conv5_1
I0402 00:13:18.544510  2590 net.cpp:156] Setting up conv5_1
I0402 00:13:18.544602  2590 net.cpp:164] Top shape: 1 512 44 44 (991232)
I0402 00:13:18.544641  2590 layer_factory.hpp:76] Creating layer relu5_1
I0402 00:13:18.544675  2590 net.cpp:111] Creating Layer relu5_1
I0402 00:13:18.544708  2590 net.cpp:478] relu5_1 <- conv5_1
I0402 00:13:18.544772  2590 net.cpp:420] relu5_1 -> conv5_1 (in-place)
I0402 00:13:18.544813  2590 net.cpp:156] Setting up relu5_1
I0402 00:13:18.544842  2590 net.cpp:164] Top shape: 1 512 44 44 (991232)
I0402 00:13:18.544860  2590 layer_factory.hpp:76] Creating layer conv5_2
I0402 00:13:18.544883  2590 net.cpp:111] Creating Layer conv5_2
I0402 00:13:18.544901  2590 net.cpp:478] conv5_2 <- conv5_1
I0402 00:13:18.544926  2590 net.cpp:434] conv5_2 -> conv5_2
I0402 00:13:18.549422  2590 net.cpp:156] Setting up conv5_2
I0402 00:13:18.549581  2590 net.cpp:164] Top shape: 1 512 44 44 (991232)
I0402 00:13:18.549690  2590 layer_factory.hpp:76] Creating layer relu5_2
I0402 00:13:18.549724  2590 net.cpp:111] Creating Layer relu5_2
I0402 00:13:18.549787  2590 net.cpp:478] relu5_2 <- conv5_2
I0402 00:13:18.549810  2590 net.cpp:420] relu5_2 -> conv5_2 (in-place)
I0402 00:13:18.549837  2590 net.cpp:156] Setting up relu5_2
I0402 00:13:18.549863  2590 net.cpp:164] Top shape: 1 512 44 44 (991232)
I0402 00:13:18.549880  2590 layer_factory.hpp:76] Creating layer conv5_3
I0402 00:13:18.549904  2590 net.cpp:111] Creating Layer conv5_3
I0402 00:13:18.549932  2590 net.cpp:478] conv5_3 <- conv5_2
I0402 00:13:18.549953  2590 net.cpp:434] conv5_3 -> conv5_3
I0402 00:13:18.553838  2590 net.cpp:156] Setting up conv5_3
I0402 00:13:18.553964  2590 net.cpp:164] Top shape: 1 512 44 44 (991232)
I0402 00:13:18.554011  2590 layer_factory.hpp:76] Creating layer relu5_3
I0402 00:13:18.554074  2590 net.cpp:111] Creating Layer relu5_3
I0402 00:13:18.554122  2590 net.cpp:478] relu5_3 <- conv5_3
I0402 00:13:18.554162  2590 net.cpp:420] relu5_3 -> conv5_3 (in-place)
I0402 00:13:18.554204  2590 net.cpp:156] Setting up relu5_3
I0402 00:13:18.554250  2590 net.cpp:164] Top shape: 1 512 44 44 (991232)
I0402 00:13:18.554280  2590 layer_factory.hpp:76] Creating layer pool5
I0402 00:13:18.554397  2590 net.cpp:111] Creating Layer pool5
I0402 00:13:18.554608  2590 net.cpp:478] pool5 <- conv5_3
I0402 00:13:18.554673  2590 net.cpp:434] pool5 -> pool5
I0402 00:13:18.554744  2590 net.cpp:156] Setting up pool5
I0402 00:13:18.554811  2590 net.cpp:164] Top shape: 1 512 22 22 (247808)
I0402 00:13:18.554895  2590 layer_factory.hpp:76] Creating layer fc6
I0402 00:13:18.555039  2590 net.cpp:111] Creating Layer fc6
I0402 00:13:18.555099  2590 net.cpp:478] fc6 <- pool5
I0402 00:13:18.555161  2590 net.cpp:434] fc6 -> fc6
I0402 00:13:18.688601  2590 net.cpp:156] Setting up fc6
I0402 00:13:18.688696  2590 net.cpp:164] Top shape: 1 4096 16 16 (1048576)
I0402 00:13:18.688729  2590 layer_factory.hpp:76] Creating layer relu6
I0402 00:13:18.688756  2590 net.cpp:111] Creating Layer relu6
I0402 00:13:18.688776  2590 net.cpp:478] relu6 <- fc6
I0402 00:13:18.688814  2590 net.cpp:420] relu6 -> fc6 (in-place)
I0402 00:13:18.688848  2590 net.cpp:156] Setting up relu6
I0402 00:13:18.688868  2590 net.cpp:164] Top shape: 1 4096 16 16 (1048576)
I0402 00:13:18.688890  2590 layer_factory.hpp:76] Creating layer drop6
I0402 00:13:18.688915  2590 net.cpp:111] Creating Layer drop6
I0402 00:13:18.688940  2590 net.cpp:478] drop6 <- fc6
I0402 00:13:18.688959  2590 net.cpp:420] drop6 -> fc6 (in-place)
I0402 00:13:18.688989  2590 net.cpp:156] Setting up drop6
I0402 00:13:18.689010  2590 net.cpp:164] Top shape: 1 4096 16 16 (1048576)
I0402 00:13:18.689038  2590 layer_factory.hpp:76] Creating layer fc7
I0402 00:13:18.689069  2590 net.cpp:111] Creating Layer fc7
I0402 00:13:18.689088  2590 net.cpp:478] fc7 <- fc6
I0402 00:13:18.689108  2590 net.cpp:434] fc7 -> fc7
I0402 00:13:18.711251  2590 net.cpp:156] Setting up fc7
I0402 00:13:18.711387  2590 net.cpp:164] Top shape: 1 4096 16 16 (1048576)
I0402 00:13:18.711447  2590 layer_factory.hpp:76] Creating layer relu7
I0402 00:13:18.711501  2590 net.cpp:111] Creating Layer relu7
I0402 00:13:18.711534  2590 net.cpp:478] relu7 <- fc7
I0402 00:13:18.711585  2590 net.cpp:420] relu7 -> fc7 (in-place)
I0402 00:13:18.711638  2590 net.cpp:156] Setting up relu7
I0402 00:13:18.711671  2590 net.cpp:164] Top shape: 1 4096 16 16 (1048576)
I0402 00:13:18.711699  2590 layer_factory.hpp:76] Creating layer drop7
I0402 00:13:18.711732  2590 net.cpp:111] Creating Layer drop7
I0402 00:13:18.711760  2590 net.cpp:478] drop7 <- fc7
I0402 00:13:18.711796  2590 net.cpp:420] drop7 -> fc7 (in-place)
I0402 00:13:18.711877  2590 net.cpp:156] Setting up drop7
I0402 00:13:18.712715  2590 net.cpp:164] Top shape: 1 4096 16 16 (1048576)
I0402 00:13:18.713295  2590 layer_factory.hpp:76] Creating layer score-fr
I0402 00:13:18.713449  2590 net.cpp:111] Creating Layer score-fr
I0402 00:13:18.713518  2590 net.cpp:478] score-fr <- fc7
I0402 00:13:18.713778  2590 net.cpp:434] score-fr -> score
I0402 00:13:18.714812  2590 net.cpp:156] Setting up score-fr
I0402 00:13:18.715037  2590 net.cpp:164] Top shape: 1 21 16 16 (5376)
I0402 00:13:18.715100  2590 layer_factory.hpp:76] Creating layer score2
I0402 00:13:18.715175  2590 net.cpp:111] Creating Layer score2
I0402 00:13:18.715266  2590 net.cpp:478] score2 <- score
I0402 00:13:18.715445  2590 net.cpp:434] score2 -> score2
I0402 00:13:18.716281  2590 net.cpp:156] Setting up score2
I0402 00:13:18.716372  2590 net.cpp:164] Top shape: 1 21 34 34 (24276)
I0402 00:13:18.716423  2590 layer_factory.hpp:76] Creating layer score2_score2_0_split
I0402 00:13:18.716454  2590 net.cpp:111] Creating Layer score2_score2_0_split
I0402 00:13:18.716472  2590 net.cpp:478] score2_score2_0_split <- score2
I0402 00:13:18.716496  2590 net.cpp:434] score2_score2_0_split -> score2_score2_0_split_0
I0402 00:13:18.716521  2590 net.cpp:434] score2_score2_0_split -> score2_score2_0_split_1
I0402 00:13:18.716547  2590 net.cpp:156] Setting up score2_score2_0_split
I0402 00:13:18.716567  2590 net.cpp:164] Top shape: 1 21 34 34 (24276)
I0402 00:13:18.716583  2590 net.cpp:164] Top shape: 1 21 34 34 (24276)
I0402 00:13:18.716600  2590 layer_factory.hpp:76] Creating layer score-pool4
I0402 00:13:18.716621  2590 net.cpp:111] Creating Layer score-pool4
I0402 00:13:18.716641  2590 net.cpp:478] score-pool4 <- pool4_pool4_0_split_1
I0402 00:13:18.716662  2590 net.cpp:434] score-pool4 -> score-pool4
I0402 00:13:18.716727  2590 net.cpp:156] Setting up score-pool4
I0402 00:13:18.716748  2590 net.cpp:164] Top shape: 1 21 44 44 (40656)
I0402 00:13:18.716769  2590 layer_factory.hpp:76] Creating layer crop
I0402 00:13:18.716791  2590 net.cpp:111] Creating Layer crop
I0402 00:13:18.716809  2590 net.cpp:478] crop <- score-pool4
I0402 00:13:18.716888  2590 net.cpp:478] crop <- score2_score2_0_split_0
I0402 00:13:18.716928  2590 net.cpp:434] crop -> score-pool4c
I0402 00:13:18.717028  2590 net.cpp:156] Setting up crop
I0402 00:13:18.717067  2590 net.cpp:164] Top shape: 1 21 34 34 (24276)
I0402 00:13:18.717097  2590 layer_factory.hpp:76] Creating layer fuse
I0402 00:13:18.717131  2590 net.cpp:111] Creating Layer fuse
I0402 00:13:18.717160  2590 net.cpp:478] fuse <- score2_score2_0_split_1
I0402 00:13:18.717691  2590 net.cpp:478] fuse <- score-pool4c
I0402 00:13:18.717720  2590 net.cpp:434] fuse -> score-fused
I0402 00:13:18.717761  2590 net.cpp:156] Setting up fuse
I0402 00:13:18.717795  2590 net.cpp:164] Top shape: 1 21 34 34 (24276)
I0402 00:13:18.717846  2590 layer_factory.hpp:76] Creating layer score4
I0402 00:13:18.717917  2590 net.cpp:111] Creating Layer score4
I0402 00:13:18.717939  2590 net.cpp:478] score4 <- score-fused
I0402 00:13:18.717972  2590 net.cpp:434] score4 -> score4
I0402 00:13:18.718427  2590 net.cpp:156] Setting up score4
I0402 00:13:18.718466  2590 net.cpp:164] Top shape: 1 21 70 70 (102900)
I0402 00:13:18.718488  2590 layer_factory.hpp:76] Creating layer score4_score4_0_split
I0402 00:13:18.718602  2590 net.cpp:111] Creating Layer score4_score4_0_split
I0402 00:13:18.718631  2590 net.cpp:478] score4_score4_0_split <- score4
I0402 00:13:18.718653  2590 net.cpp:434] score4_score4_0_split -> score4_score4_0_split_0
I0402 00:13:18.718678  2590 net.cpp:434] score4_score4_0_split -> score4_score4_0_split_1
I0402 00:13:18.718703  2590 net.cpp:156] Setting up score4_score4_0_split
I0402 00:13:18.718724  2590 net.cpp:164] Top shape: 1 21 70 70 (102900)
I0402 00:13:18.718740  2590 net.cpp:164] Top shape: 1 21 70 70 (102900)
I0402 00:13:18.718757  2590 layer_factory.hpp:76] Creating layer score-pool3
I0402 00:13:18.718782  2590 net.cpp:111] Creating Layer score-pool3
I0402 00:13:18.718801  2590 net.cpp:478] score-pool3 <- pool3_pool3_0_split_1
I0402 00:13:18.718822  2590 net.cpp:434] score-pool3 -> score-pool3
I0402 00:13:18.718910  2590 net.cpp:156] Setting up score-pool3
I0402 00:13:18.718936  2590 net.cpp:164] Top shape: 1 21 88 88 (162624)
I0402 00:13:18.718960  2590 layer_factory.hpp:76] Creating layer crop
I0402 00:13:18.718982  2590 net.cpp:111] Creating Layer crop
I0402 00:13:18.719000  2590 net.cpp:478] crop <- score-pool3
I0402 00:13:18.719020  2590 net.cpp:478] crop <- score4_score4_0_split_0
I0402 00:13:18.719041  2590 net.cpp:434] crop -> score-pool3c
I0402 00:13:18.719120  2590 net.cpp:156] Setting up crop
I0402 00:13:18.719141  2590 net.cpp:164] Top shape: 1 21 70 70 (102900)
I0402 00:13:18.719159  2590 layer_factory.hpp:76] Creating layer fuse
I0402 00:13:18.719182  2590 net.cpp:111] Creating Layer fuse
I0402 00:13:18.719198  2590 net.cpp:478] fuse <- score4_score4_0_split_1
I0402 00:13:18.719218  2590 net.cpp:478] fuse <- score-pool3c
I0402 00:13:18.719238  2590 net.cpp:434] fuse -> score-final
I0402 00:13:18.719261  2590 net.cpp:156] Setting up fuse
I0402 00:13:18.719280  2590 net.cpp:164] Top shape: 1 21 70 70 (102900)
I0402 00:13:18.719296  2590 layer_factory.hpp:76] Creating layer upsample
I0402 00:13:18.719316  2590 net.cpp:111] Creating Layer upsample
I0402 00:13:18.719389  2590 net.cpp:478] upsample <- score-final
I0402 00:13:18.719416  2590 net.cpp:434] upsample -> bigscore
I0402 00:13:18.719687  2590 net.cpp:156] Setting up upsample
I0402 00:13:18.719713  2590 net.cpp:164] Top shape: 1 21 568 568 (6775104)
I0402 00:13:18.719733  2590 layer_factory.hpp:76] Creating layer crop
I0402 00:13:18.719754  2590 net.cpp:111] Creating Layer crop
I0402 00:13:18.719771  2590 net.cpp:478] crop <- bigscore
I0402 00:13:18.719789  2590 net.cpp:478] crop <- data_input_0_split_1
I0402 00:13:18.719810  2590 net.cpp:434] crop -> coarse
I0402 00:13:18.719919  2590 net.cpp:156] Setting up crop
I0402 00:13:18.719947  2590 net.cpp:164] Top shape: 1 21 500 500 (5250000)
I0402 00:13:18.719964  2590 layer_factory.hpp:76] Creating layer splitting
I0402 00:13:18.719985  2590 net.cpp:111] Creating Layer splitting
I0402 00:13:18.720001  2590 net.cpp:478] splitting <- coarse
I0402 00:13:18.720021  2590 net.cpp:434] splitting -> unary
I0402 00:13:18.720042  2590 net.cpp:434] splitting -> Q0
I0402 00:13:18.720065  2590 net.cpp:156] Setting up splitting
I0402 00:13:18.720083  2590 net.cpp:164] Top shape: 1 21 500 500 (5250000)
I0402 00:13:18.720100  2590 net.cpp:164] Top shape: 1 21 500 500 (5250000)
I0402 00:13:18.720116  2590 layer_factory.hpp:76] Creating layer inference1
I0402 00:13:18.720137  2590 net.cpp:111] Creating Layer inference1
I0402 00:13:18.720155  2590 net.cpp:478] inference1 <- unary
I0402 00:13:18.720171  2590 net.cpp:478] inference1 <- Q0
I0402 00:13:18.720188  2590 net.cpp:478] inference1 <- data_input_0_split_2
I0402 00:13:18.720209  2590 net.cpp:434] inference1 -> pred
I0402 00:13:18.720232  2590 multi_stage_meanfield.cpp:49] This implementation has not been tested batch size > 1.
I0402 00:13:18.820744  2590 multi_stage_meanfield.cpp:152] MultiStageMeanfieldLayer initialized.
I0402 00:13:18.820842  2590 net.cpp:156] Setting up inference1
I0402 00:13:18.820869  2590 net.cpp:164] Top shape: 1 21 500 500 (5250000)
I0402 00:13:18.820899  2590 net.cpp:241] inference1 does not need backward computation.
I0402 00:13:18.820919  2590 net.cpp:241] splitting does not need backward computation.
I0402 00:13:18.820937  2590 net.cpp:241] crop does not need backward computation.
I0402 00:13:18.820955  2590 net.cpp:241] upsample does not need backward computation.
I0402 00:13:18.821014  2590 net.cpp:241] fuse does not need backward computation.
…
